Handwritten_Digit_Recognition_Infosys_Internship_Oct2024/lenet5_model.pth (torch, 250430 bytes, 10 tensors)

conv1.weight f4 [6, 1, 5, 5]
00000000: dbce 45be a731 8e3e 0b9b 943e c86c a03e
00000010: b5de 78bd 1412 aa3c b58f 9b3e bc4d 973e
00000020: 6704 9fbd 446f 3b3c 5877 583e 69dc 883e
00000030: 4322 ba3e 9cac 023e 562a 853d 1b2f 6e3e
00000040: 4fdb 473e fb7f 823e 1c47 01be cee6 62be
00000050: a0e7 a0bd fd02 323e f487 b53e 5e86 1e3e
00000060: ee82 963c 1dc8 ccbd 5641 0abe 343b 80be
00000070: 630a a3be 1c6a 5fbe fc5a aabd 17b5 bdbe
00000080: bbff a2be da36 afbe 2555 bdbd 29d0 823d
00000090: 48bc 803c ba19 213e 0d08 a1bc 1612 803e
000000a0: b26b 0c3e 95b9 a23d 056f 263e 77fe 093e
000000b0: d9cb 4e3e e014 bb3d adc7 c13e 1e74 eb3e
000000c0: ecd7 d93e 5071 743e a8d3 1f3d b076 f83d
000000d0: 6e7e debd bfd8 ef3d 57ee a03e 9cae 33be
000000e0: bacd efbe bceb 0ebf 72d2 cabe a303 26be
000000f0: ccbd 79be e97b 1abf 526f 02bf 0a39 1bbf
00000100: 9e51 d33d 59aa 25be 0eaf febe 2abf 13bf
00000110: b740 b3bd aefc b93d ea8c 8f3d d95c 8bbe
00000120: 9312 0d3e f47f cc3e c270 f93e dc91 9a3e
00000130: 2b12 0ebe ccf7 033e be6b 5fbe 242f 3dbe
00000140: 61fe bbbd 996d d8be 5b46 c9be 6479 1abf
00000150: 28f7 d2be c885 3fbe 86fc e0be 9122 31bf
00000160: 7ff6 38bf 0149 f1be aa13 f0bd 0ec8 58bd
00000170: 1fa3 60be 067e 72be 1276 ffbc 0634 003f
00000180: 7919 a73e 6e9e 2d3e 7013 023f fbea c43e
00000190: d921 f93e 9b4d f73e c185 973d 4c17 8c3e
000001a0: f71d 8d3e 8bfd c93d 916d 00be 3778 bebe
000001b0: 425b f3be 8588 d0be b3e8 9cbe fc4f ecbe
000001c0: 496f 2ebf 05da 41bf cd08 bebe aa33 0b3d
000001d0: 0eae ffbe 322a 3cbf ab79 b4be e618 5cbe
000001e0: aa13 3a3e e5ac a7be f73f 3abe 968a 2b3e
000001f0: 48b2 013f 8beb 2ebe 28b6 013a c5bf 5e3e
00000200: b285 6b3e 0648 363e c3ab 73bb e3b3 a63d
00000210: 92b6 8c3e 0cf7 d93e a3ec 363e 97c9 833d
00000220: d988 e33c ec76 a23e 4508 b33e 8d12 bc3d
00000230: fc03 11be af91 423d 404c c33e 63f7 983e
00000240: cf1e a63e 9dd8 3cbe 1b24 323d a92b bcbd
00000250: 70dd f73d eca3 b03d
-0.1931719 0.27772257 0.29024538 0.31332994 -0.060759265 0.020760573 0.30383077 0.29551494
-0.077645116 0.011440102 0.21139276 0.2673066 0.36354265 0.12761158 0.065022156 0.23260157
0.19517253 0.25488266 -0.12624782 -0.22158358 -0.07856679 0.17383952 0.35455287 0.15480945
0.018372979 -0.09999106 -0.13501486 -0.25045168 -0.31843862 -0.21817821 -0.08318135 -0.37052223
-0.31835732 -0.34221536 -0.09244756 0.0638736 0.01571478 0.1573247 -0.01965716 0.25013798
0.13712958 0.07945553 0.16253288 0.13475977 0.20194949 0.09134841 0.37847653 0.45987028
0.42547548 0.2387135 0.03902021 0.12132013 -0.10863958 0.11711263 0.3143184 -0.17547077
-0.46836644 -0.5582845 -0.39613682 -0.16212325 -0.24388808 -0.6034532 -0.5095111 -0.6063391
0.103183016 -0.16178264 -0.4974293 -0.5771357 -0.08752578 0.09081398 0.07009299 -0.27219275
0.13776617 0.3994137 0.4871884 0.30189407 -0.13874118 0.12887496 -0.21818444 -0.18475014
-0.09179378 -0.42271116 -0.3931149 -0.6034148 -0.4120419 -0.18703377 -0.4394266 -0.6919337
-0.72251123 -0.4712601 -0.117225006 -0.052925162 -0.21937226 -0.23680887 -0.03118423 0.5007938
0.32636622 0.16954967 0.5081091 0.38460526 0.48658636 0.48301396 0.073985584 0.27361524
0.27561924 0.098628126 -0.12541796 -0.37201092 -0.47530562 -0.40729156 -0.30646285 -0.46154773
-0.6813856 -0.75723296 -0.3711609 0.033984818 -0.4993748 -0.73501885 -0.35249075 -0.21493873
0.18171564 -0.32749096 -0.18188463 0.16752085 0.5066266 -0.1708204 0.0004948103 0.21752842
0.2300022 0.17800912 -0.0037181235 0.081397794 0.2748304 0.42571294 0.17863707 0.064349346
0.027775215 0.31731355 0.34967247 0.09183226 -0.14161676 0.047502216 0.38144112 0.2987624
0.3244538 -0.18442006 0.043491464 -0.09188015 0.12102783 0.086250156

conv1.bias f4 [6]
00000000: 9830 d4bc ec67 f13e e361 a03d d938 673e
00000010: 2ed3 253e 8eaf 713e
-0.025902078 0.471496 0.078311704 0.2258028 0.1619384 0.23602125

conv2.weight f4 [16, 6, 5, 5]
00000000: e514 a8bd c200 513d acc9 5a3d 900b 243d
00000010: 167f 4fbc b33c 863d 6deb acbd 996b 42bd
00000020: 8eb1 653d 6811 ddbb f039 a2bd 2fd1 93bd
00000030: b792 923d 1c74 f73c 578c 8a3c 612d 02bd
00000040: e367 e33c b75c 3a3d 5133 bb3d e131 cbbb
00000050: b189 833d 6f60 00bd 03f3 d93c cd26 0a3d
00000060: 82e7 dc3d bec0 083d 011d a8bc 2217 9bbd
00000070: 5421 b73c 9024 993d 3ec2 83bd 1447 dd3c
00000080: 3779 eebb 5b62 723c 6ecd 4e3c b5f9 f1bc
00000090: c253 7fbc 34ca b83d 9f07 e13c c2e1 183b
000000a0: 0ba7 683d 4b10 a13d f0ff 9fba 7f86 1cbd
000000b0: ff8e 65bd 1e26 af3d a124 303d d32e afbd
000000c0: 6692 ccbd 5249 5b3d e42b b33c 2f43 cebd
000000d0: 95f7 44bd e5de 793d ea90 923d b52d ccbc
000000e0: 0f53 c7bb c800 c73d d633 ec3d 76e4 50bd
000000f0: 8119 7b3d ea80 793d c14c 723c 79e2 aabb
00000100: 251e 09bd 9034 abbc 33c9 713d 4ec3 ef3b
00000110: 0948 1abe b313 47bd ed81 b23b 9034 f4bb
00000120: 12c7 c73c 25d2 8bbd c2c0 dfbd 40e8 f63b
00000130: ae42 f1bd 8c8c 03bd 4061 7dbd c6bf a33d
00000140: fc8a 863d ef7c 913c e356 203c dd20 a53d
00000150: cf2e cf3a 32d5 49b9 a949 cf3d aa9c 1b3d
00000160: 4218 99bd aa2f 26be 4cd3 9d3d e5d0 2dbc
00000170: be85 0dbe f805 a8bd 855a e7bc 8a3f 8bbc
00000180: 7f31 803b 7663 f2bd 947a 20be 5f23 d5bd
00000190: dfbf 8abd c969 ed3b c013 71bc 5730 8ebd
000001a0: 8860 28bd 3f74 25bd d09e 7a3d 0e90 f63d
000001b0: 3cab e03c e8ef 7fbd c469 063e fc42 9f3d
000001c0: d0ac 013e c899 ffbd ac99 15be de3a 0a3d
000001d0: f360 113d b367 b6bd 8232 fabd 4344 95bd
000001e0: 218f 18bd 100b 723c 7dfe eabd 6bc7 4bbe
000001f0: 86f3 fdbd 275a 67bd c89e 83bd 57d9 383d
00000200: b91a b7bb 57c6 c2bc 5292 a1bd 6f82 12bd
00000210: 7b53 1eba 3d91 95bd f6ed d7bd 6c54 10bd
00000220: 102a b8bd 8211 5abd dbd9 193d a634 303d
00000230: 709c 20bd 8179 223d e351 9abc 4429 65bc
00000240: 1b73 1d3c f943 883d 746a a9bc 0afe e63d
00000250: 8ac8 da3c 7fc4 5b3d 35f2 b6bd 3961 c13c
00000260: ae55 b3bc 8ffb e43d 7473 073e 0148 b0bd
00000270: 4ef3 8fbb 3a3a 163d 055a 953d fede 503d
00000280: bb48 d73c c51e afbd 790f d33d c0b1 7d3e
00000290: 8bf7 a13c c60a d0bb b88b 9a3b 6ccc e43d
000002a0: 4166 053e 1ae7 dbbd 420e 34bd fdc8 153d
000002b0: 927b 963d 5da2 293d bdf7 ddbd 3f74 b33d
000002c0: 7add 853c 37b0 003c ea93 6cbd 4b5b b2bd
000002d0: bd77 2f3d 8659 903c f55a 293e c955 7d3b
000002e0: 81ea 02be 5d07 07bd f1bc 183d acfd 74bd
000002f0: 7b7c 2ebe 47db 47be e796 983d 0efc 1cbd
00000300: cdb7 72be b80d 2dbe 4efc e9bc 7b56 a8bd
00000310: 2e46 65bc 1e49 6abc 47d9 c4bc 0f0d 003d
00000320: 1258 72be 3dfe 853d 4480 253e 6b6a c23c
00000330: a393 17be 5ea1 65be cd21 363e c710 623e
00000340: 4a12 73be a71b e7bd 834e 7c3c 65b2 473e
00000350: 1fc5 cfbd c96e 8dbe e6ce 26bd e773 1a3d
00000360: 6a85 a2bd 22c0 b4bd 62da 483d b044 9d3d
00000370: 1cb9 4abd effc 97bd 66c8 bf3d 9138 a33b
00000380: 91a2 e03d e0f8 f7bc 934d 493e f3fb 263e
00000390: 920e 08be adc2 4bbe 24af b1bd b05f 7e3e
000003a0: cc20 0fbd f44c 85be d518 81be d347 cf3d
000003b0: 6999 163d 1b8c 37be eb02 1ebe 12e1 573d
000003c0: 8991 b73d 15ab 0bbe 114b f0bd a472 303a
000003d0: 620f 143e f001 9d3d ef24 eabd b59a 64bc
000003e0: 290a df3d 08d1 d03d e8bd e3bd 128b 913e
000003f0: 843d 8b3e 8db2 66bd c63f 32be da61 55bd
-0.0820711 0.051026113 0.053414986 0.04005009 -0.012664577 0.06554546 -0.084433414 -0.047465894
0.056077532 -0.0067464598 -0.07921207 -0.07217633 0.0715689 0.030206732 0.016912622 -0.031781558
0.027759498 0.045498576 0.09140647 -0.0062010144 0.06422747 -0.031341966 0.026605135 0.03372841
0.10786344 0.03338694 -0.020521643 -0.075727716 0.02235476 0.07477677 -0.06433533 0.027011432
-0.0072776335 0.014793958 0.01262222 -0.029538015 -0.015583934 0.09022942 0.027469454 0.0023327922
0.05679993 0.07864436 -0.0012207013 -0.038214203 -0.056044575 0.08552192 0.043003682 -0.08553853
-0.09988861 0.05353672 0.021871515 -0.10071408 -0.048087675 0.061003584 0.071565464 -0.024924139
-0.0060828994 0.09716946 0.115333244 -0.050999127 0.06130362 0.060913958 0.014788807 -0.005214986
-0.033476014 -0.020899087 0.05902977 0.0073169833 -0.15066542 -0.04860277 0.0054476173 -0.007452555
0.024386916 -0.06827191 -0.109254375 0.0075350106 -0.11780296 -0.032116458 -0.061860323 0.07995562
0.06569478 0.017759768 0.00978634 0.08062909 0.0015806797 -0.00019248275 0.101214714 0.037991203
-0.0747533 -0.1622912 0.07706317 -0.010608886 -0.1382055 -0.082042634 -0.028241405 -0.016998071
0.0039121504 -0.11835377 -0.1567176 -0.10407137 -0.06774878 0.0072452766 -0.014714181 -0.06942814
-0.041107684 -0.040394064 0.06118661 0.12039195 0.0274254 -0.06248465 0.13126284 0.07776448
0.12663579 -0.12480503 -0.14609402 0.033747546 0.03549285 -0.08906498 -0.12216665 -0.072884105
-0.037245873 0.014773145 -0.11474321 -0.1990029 -0.12399964 -0.05648246 -0.064267695 0.045129146
-0.0055879024 -0.023776216 -0.078892365 -0.035768922 -0.0006039661 -0.07303093 -0.10543434 -0.03523676
-0.08992398 -0.053239353 0.03756128 0.04301896 -0.03921169 0.039666656 -0.018837875 -0.013986889
0.009609963 0.0665359 -0.020680644 0.11278923 0.026706953 0.05365419 -0.08932916 0.02360593
-0.021891441 0.111807935 0.13227636 -0.08607484 -0.004393018 0.036676623 0.072925605 0.050993912
0.026279798 -0.08550791 0.103056855 0.24774837 0.019771358 -0.0063489405 0.004716363 0.11171803
0.13027288 -0.107374385 -0.04395891 0.03656863 0.07347788 0.041414607 -0.10838268 0.087624066
0.01634096 0.007854513 -0.05775825 -0.08708819 0.0428388 0.017620813 0.16538604 0.0038655868
-0.12784769 -0.032966007 0.037289564 -0.059812233 -0.17039673 -0.19517241 0.07450657 -0.038326316
-0.23702927 -0.16899765 -0.028562691 -0.0821962 -0.013993783 -0.014299659 -0.024029387 0.031262454
-0.23666409 0.06542633 0.1616221 0.023732385 -0.14802413 -0.22424838 0.17786331 0.22076713
-0.23737445 -0.11284571 0.015399578 0.19501646 -0.1014502 -0.27623585 -0.040724657 0.03770819
-0.07935603 -0.08825709 0.04903639 0.07679117 -0.04949294 -0.0742129 0.09364395 0.0049811085
0.10968507 -0.03027004 0.19658498 0.16307048 -0.13286808 -0.19898482 -0.086759835 0.2484119
-0.034943387 -0.26035273 -0.25214258 0.10121121 0.036767397 -0.1792454 -0.154308 0.05270488
0.089633055 -0.13639481 -0.11733068 0.000673095 0.14458993 0.07666385 -0.11432826 -0.013952901
0.1089061 0.101961195 -0.11120206 0.28426415 0.2719537 -0.056322623 -0.1740714 -0.05209527

conv2.bias f4 [16]
00000000: bb42 71bd d776 513d 27fc 21bd cbbe d13c
00000010: 385b 643d c2c9 02bd a5fd 773d cf31 6cbd
00000020: 568b 24bd 99d0 4abd faed 993d 6fbb a33d
00000030: 74cf debd a15c 5e3b c0d8 eebd 3a42 2dbc
-0.05890153 0.051138725 -0.03954711 0.025603672 0.055751055 -0.031930692 0.06054463 -0.05766469
-0.040171944 -0.04951534 0.075160936 0.079947345 -0.10879412 0.0033929723 -0.116624355 -0.010574872

conv3.weight f4 [120, 16, 5, 5]
00000000: fb8d 30bc f2e6 223d 3ca9 22bd 09d0 d13c
00000010: 75f3 583c fc3c d4bc d43b ea3c fdfa da3b
00000020: 1507 9c3c c538 cbbc 71d9 06bd 9be4 573d
00000030: 2044 85bb 7890 a83c c508 f1bc 80ec 68bb
00000040: bd3c c43c c696 513d 96bd 82bb ff75 ce3c
00000050: 2e9b e73c ae15 e4bc 8c34 123d ca3f 8bbc
00000060: 1389 db3c bd4d 5c3d 7d00 fabc 393b 083d
00000070: a95b 5a3c a0b9 4fbc b669 34bd eea9 8bbd
00000080: 1ce5 c0ba 875a 3c3b 4f94 163a 0217 5a3d
00000090: 8093 35bd c531 e33c c8fa 10bc a3f0 353b
000000a0: c81e 28bd 6465 44bb 57a7 563c ad09 f03c
000000b0: a97d 1bbc 8340 1a3d 447e 853c b2c0 933d
000000c0: e45c 0bbd b506 743c 9b3b 113d 8253 213d
000000d0: 31fa 78bd be15 573d 139b 643d aee3 803c
000000e0: 4cd1 5abd 4f83 ae3c 0c80 cc3c 4aef 2b3c
000000f0: e00f c83c b6ce 6cbc 9d2f e7bb 5024 94bc
00000100: ab8d db3b 3a54 283d 8f0b 6a3c cd49 0d3c
00000110: 633f 96bc 2da3 123d 735e c3bc 12bb cb3a
00000120: ad2a ac3c f29b aabc dff9 d23c eae6 61bc
00000130: 1924 11bd 2256 0cbd bb41 f73c 1b41 31bd
00000140: 3555 1b3d 330d e23c eb07 293d 95c1 f23c
00000150: a8e8 4a3d e609 2d3d eae8 c6bb c97a 093d
00000160: a23f d6bb c011 273c 90c4 3a3b dc54 8abc
00000170: c7fa 173d 99db 923d 97c1 993c bbf9 d8bc
00000180: 3925 193d 9e9b 523d 0e2e 2abb 908c b23c
00000190: 6dc3 2f3d c365 2c3c f439 05bd 7603 1a3d
000001a0: f7c0 c53c c774 edbc 4a21 4abd 1a56 c9bc
000001b0: 049d c4bb 4a6b 32bd 7285 a83c 31c2 2fbd
000001c0: b967 393d e9e1 3dbd 7ee5 e13c 14e5 87bc
000001d0: 3a46 dc3c a1de 96bc cd27 463d 946f 623b
000001e0: 8576 8cbc d157 89bc 6153 c6bc 85d7 133d
000001f0: e27d 16bc 05bb b5bb 7fc5 c8bb 2804 dcbc
00000200: 2c30 173d e62d d93b 8543 22bd 47d7 01bd
00000210: 9ff8 5d3d ffa2 a8bc 5353 0b3d ceb9 4a3d
00000220: 1147 9cbc dbef 14bd 845b 2a3d 17d6 2dbc
00000230: 077d 1ebd c37a 5e3c 5854 40bd b807 083d
00000240: 288a d53c 7ff7 3b3d 9f63 2fbc 7bf9 d3bc
00000250: 2353 d23c 982a fabc 30e5 f8bb 18d7 b1bb
00000260: 10ad 12bd 0075 4839 62e1 d93c 58e0 2a3c
00000270: 2557 4cbd 86f6 a23c 6688 55bb 52e4 2a3d
00000280: 65eb 13bd e618 28bd 5bcc afbc f36a 1cbd
00000290: 1d58 f13c 28ae 41bc d4c2 d7bb 2e16 dcbc
000002a0: e4bc 683c 4059 bd3b 41b4 163d f93d 283d
000002b0: b6a5 d73c b91e 433d 3552 3abd 4a32 23bd
000002c0: d71f 44bd e595 83bd 67bc 05bd 2c89 d7bc
000002d0: ccb4 513d 436e 65bc f6d3 d2bc 846a 213c
000002e0: c7ed f9bc 8502 023d fba3 2d3c 5992 853a
000002f0: c987 69bc 862b d6bc 7323 423d ff5e 3a3c
00000300: 0304 ae3b edb2 06bd 56b1 1abd 2da6 8bbb
00000310: f0a7 1c3d 51d8 10bd a9ee 00bd fabd 943b
00000320: 6043 f8ba 73af 143d baf0 1cbd 924b c33c
00000330: e842 40bd 8ee8 1abd f95e 68bc 0d59 6cbc
00000340: e0c2 083c 6ba2 9dbc 1cc2 453d a945 febb
00000350: 632b 373d cbe9 1b3d c01c 483d 16fc 5b3c
00000360: e479 bf3c 1532 48bd 2648 963c c3de 59bb
00000370: f0ae 9dbc b309 8f3c c54d 2abd 8a54 0ebd
00000380: 67e2 4a3d 7cb5 013d 7cb2 35bd 962f 24bd
00000390: c57f 143c 17e9 903c 0d40 21bd 79c9 abbc
000003a0: 2d91 933c 6aa2 373d b9f5 c5bc 6166 d63b
000003b0: 863a 50bd 9d8f c43c c4a8 1f3d c54e 073d
000003c0: c108 31bd a50b a7bc a842 18bd 9c8f 113d
000003d0: f68f 01bd 8891 3a3d 37f1 27bd a4ee 3dbd
000003e0: 867e dcbc f72d 2b3c ba76 543d 4d43 2f3c
000003f0: f788 b0bb 488f 62bd e596 203d d68e 42bc
-0.010776038 0.039771028 -0.039712176 0.025611894 0.013241638 -0.025907986 0.028592981 0.006682752
0.019046346 -0.024807343 -0.032922212 0.05270825 -0.004066959 0.0205767 -0.029423127 -0.0035541356
0.023954744 0.05116918 -0.0039898856 0.02520275 0.028272238 -0.027842369 0.035694644 -0.01699819
0.02679876 0.053785075 -0.030517811 0.033259604 0.013327518 -0.012678534 -0.044046126 -0.06819521
-0.0014716717 0.0028740482 0.00057441456 0.0532446 -0.04433012 0.027733693 -0.008848853 0.002776184
-0.04104498 -0.002996766 0.01310142 0.029301489 -0.009490409 0.03765918 0.01629556 0.07214488
-0.034024134 0.014894177 0.035457235 0.03938628 -0.060785476 0.05251097 0.055811953 0.015733566
-0.053422257 0.021302847 0.024963401 0.010494063 0.024421632 -0.014453581 -0.0070552365 -0.018083721
0.0067002377 0.04109595 0.014284982 0.0086235525 -0.018340772 0.035800148 -0.023848748 0.0015543422
0.021016443 -0.020826314 0.025753913 -0.013787964 -0.035434816 -0.03426183 0.03018271 -0.04327498
0.037923057 0.027594185 0.041267317 0.029633323 0.049538285 0.042245768 -0.006070246 0.033564363
-0.0065383473 0.010197103 0.0028498508 -0.016886167 0.037104394 0.07170791 0.018769069 -0.026486268
0.037389014 0.05141794 -0.0025967392 0.021795541 0.042910982 0.010522309 -0.03252597 0.037600957
0.024139864 -0.028986348 -0.049348153 -0.02457719 -0.006000163 -0.04355935 0.020571444 -0.042909805
0.045264933 -0.046358023 0.02757525 -0.016588725 0.026888955 -0.018416705 0.0483778 0.003455137
-0.017146358 -0.016765507 -0.02420968 0.036094207 -0.009185286 -0.005545976 -0.006127059 -0.02685745
0.036911175 0.006627786 -0.039615173 -0.031699445 0.05419218 -0.020585535 0.03401501 0.049493603
-0.019076856 -0.036361557 0.041591182 -0.010610125 -0.038693454 0.013579073 -0.046955436 0.033210486
0.026066855 0.045890328 -0.010704904 -0.025875797 0.025674408 -0.030537888 -0.0075956807 -0.0054272525
-0.035809577 0.00019117072 0.026596729 0.010429464 -0.049887795 0.019892942 -0.003258252 0.04172165
-0.03611316 -0.04103937 -0.021459749 -0.038187932 0.029460961 -0.011821307 -0.0065845046 -0.026866045
0.014205191 0.0057784617 0.036792997 0.041074727 0.026324134 0.04763672 -0.045488555 -0.03984288
-0.047881927 -0.064250745 -0.032650378 -0.026310526 0.051197812 -0.014003339 -0.025735836 0.009852055
-0.030508889 0.031740684 0.010598178 0.001019071 -0.014253565 -0.0261438 0.04739709 0.011375188
0.005310537 -0.03288548 -0.037766777 -0.004261753 0.038246095 -0.035362545 -0.031477604 0.0045392485
-0.0018940978 0.036300134 -0.038315512 0.023839746 -0.046938807 -0.037819438 -0.0141827995 -0.014425528
0.008347243 -0.019242486 0.04828082 -0.007759769 0.04471911 0.03806476 0.048855543 0.013426801
0.023373552 -0.048875887 0.01834495 -0.0033244349 -0.019248456 0.01746068 -0.041578073 -0.03474859
0.04953232 0.031667218 -0.04435967 -0.040084444 0.009063666 0.01768927 -0.039367724 -0.020970093
0.018013561 0.044832624 -0.024165021 0.0065429662 -0.050837062 0.023994261 0.038979307 0.033034105
-0.04322124 -0.020391295 -0.037172943 0.035537347 -0.031631432 0.045548946 -0.041001525 -0.046370164
-0.0269158 0.010447971 0.05187104 0.010697198 -0.005387421 -0.055312425 0.039206404 -0.011874875

conv3.bias f4 [120]
00000000: a827 0bbc afb1 803b b2f5 dabb bf35 053d
00000010: c706 2cbd 3452 d0bb 7863 2fbc b26d 4b3d
00000020: 4724 bebb 2cb9 273d 0cbe 85bc aad9 543c
00000030: 5352 533c 83c9 03bd fced 343b 2665 693d
00000040: dc9b 4fbd 4024 76bc 5556 cebc 9649 b03b
00000050: 2ef7 483c bebe 5e3d d0c5 c6bc 9476 28bd
00000060: e52f 1cbd a515 f9bc 872f f43c 3e55 8cbc
00000070: dd10 333d 5321 1ebd 691f 04bd 6e91 e13c
00000080: 928e 523c 58a2 a93c 0d3a 74ba 6ef2 123d
00000090: 5e9a 24bd 611d 0ab9 481d 953b fe36 f3bc
000000a0: 7e75 243d 35a9 90bc 5ff7 84bc d7f2 6b3d
000000b0: 76dd 113d f185 903c 1e89 af3c 611b 8d3c
000000c0: fff1 40bd b29a 1ebd a094 903c 0cf3 40bb
000000d0: 1505 7cbc 80a9 00bd 5bf5 573d 0092 e43b
000000e0: cf96 cfbc b8f0 4e3c 264d dabc 902d 2f3d
000000f0: 9a5b 95bc b89f 503d d4fd 2f3c 7f21 a93c
00000100: 3bfc 823b 6a0d 703d 1ec7 bebc f28b 86bc
00000110: 0688 e53b 5f11 11bd f894 1ebd f4e0 b93b
00000120: c02b 96bc 66f7 18bd a80c a5bc bc6e 973b
00000130: 0c7c 3d3d 5594 7f3c acb8 2d3d e8f7 d33b
00000140: 9216 c73c d70c 413d 5bea fc3b fa2d fe3c
00000150: 026e eebc ac2e 583d bfed 11bc f048 663c
00000160: cfd8 a73c 4f1f 013d da40 1dbd f3ef 093d
00000170: 23d9 593c 1c97 3f3d 004c 833c d3cb 43bd
00000180: d4ef 03bd 33ed b43c ff85 c7bc efba f9bc
00000190: 9a4b cd3c 72dd 783a acff 02bd 87ca 083c
000001a0: 8d13 223c 61ae 683d f840 313d d049 b2ba
000001b0: ce29 143d 5d28 bfbc e7e4 223d 22c8 4c3c
000001c0: 55a0 2dbd d76a 28bd 5d94 663c e10e 31bd
000001d0: 81d9 5bbc 02a8 a3bc 78f2 393d 6c1d 753a
-0.0084933415 0.0039274315 -0.006682121 0.03252196 -0.04199865 -0.0063574556 -0.010704868 0.04966516
-0.0058026644 0.040948078 -0.016325973 0.012991348 0.012898046 -0.0321746 0.002760767 0.05698123
-0.05068575 -0.015023291 -0.02518765 0.005379866 0.0122659635 0.054381125 -0.024264246 -0.04112871
-0.038131613 -0.030405829 0.029807819 -0.01713049 0.043717254 -0.038606 -0.032256518 0.027535167
0.012851374 0.020707294 -0.00093165116 0.03587573 -0.04018628 -0.0001317165 0.0045506097 -0.029689308
0.04015111 -0.01765881 -0.016231237 0.057604637 0.035611592 0.017641993 0.021427687 0.01722497
-0.047105785 -0.038721748 0.017648995 -0.0029441742 -0.015382071 -0.031411648 0.052724224 0.0069754124
-0.025340466 0.012630634 -0.026648115 0.04276806 -0.018232156 0.05093357 0.01074167 0.020645855
0.0039973534 0.058606543 -0.023288306 -0.016424153 0.0070047406 -0.035416957 -0.038716286 0.0056725685
-0.018331409 -0.037345313 -0.020147637 0.004621355 0.04626088 0.01559933 0.042412445 0.0064687617
0.024302755 0.047131386 0.007718367 0.031027783 -0.02910519 0.052778885 -0.008906781 0.014055476
0.020489125 0.031524 -0.038391925 0.0336761 0.013296398 0.04677497 0.01602745 -0.047801804
-0.03221114 0.022085762 -0.024355887 -0.030484645 0.025060464 0.0009493447 -0.03198211 0.0083490675
0.009892357 0.056806926 0.04327485 -0.001360232 0.03617268 -0.023334676 0.03976908 0.012498887
-0.042389233 -0.041117515 0.0140734585 -0.04322708 -0.013418556 -0.019977573 0.04539725 0.00093503925

fc1.weight f4 [84, 120]
00000000: ec3f 8abc d4b5 4abd caa7 85bd 0bdf a23c
00000010: 18c3 783d eaab c33c c148 94bd a75f 56bd
00000020: 5f82 cdbd 798a 21bc 0033 9abd 0498 7b3d
00000030: 70f6 4ebd e864 aabd 6602 5bbd 8c65 4cbd
00000040: bd3f 63ba 65de 48bd e0e6 98bc d98f 973d
00000050: 1da2 c5bc 5f3b 803c 1774 cc3c ac34 1abd
00000060: 69bf 88bd 8afa 353c a497 0f3b bfd0 083d
00000070: a745 0a3e 3047 da3b a132 67bd b0f4 4cbb
00000080: 9aa2 2fbd b0bc 323d 87ed a93d bd22 da3b
00000090: 4e68 303d 321b 53bd 0c00 76bc b2a8 533d
000000a0: 0d80 013e b391 a13d 2482 34bd 09a0 333d
000000b0: f070 b33b 7d94 94bd 0e3e ca3b fabc 7fbd
000000c0: 2bdd 87bc bafa 57bb 6fcc d5bc d1ab 64bc
000000d0: 8ce7 f9bc b52c 1c3d dc5c 76bd e538 5cbc
000000e0: 041d d13c 9d46 d1bb 9711 913d ee9c 85bc
000000f0: 8e0d dbbc bfee 183d 1804 8fbc 6054 a6bd
00000100: a7b5 78bb d250 c33d 0847 b23d c32b 56bd
00000110: 294a ce3d 68ca 04bd 3337 583d 371e b8bc
00000120: 72d3 c5bb fcbb 93bd 4af9 273c 249e 2b3c
00000130: dff3 943d 26c4 b2bd b134 1fbd 1488 a63d
00000140: c243 243d 0aea 323d f128 7c3d 5165 d73c
00000150: 2034 10bd d805 dfbc 410e e6bc 12b1 bcbc
00000160: 5ade 5ebc 8c54 28bc aa49 04bd 8361 bebd
00000170: 21dd 01bd aaff b93c 9532 b73d ff71 96bd
00000180: 8945 c2bd 6465 b7bd 30e2 35bd 3320 67bc
00000190: 5df4 a63c b2ef 5e3d 1e18 ec3a 00ec 81bc
000001a0: 6bbc 3cbd 052c 483d 6120 38bc dc04 3e3c
000001b0: 2983 9cbc fd64 283d 4700 88bd f132 8ebd
000001c0: c456 b73d 4083 91bd cd42 1ebc 06e0 a43c
000001d0: e909 9fbd d9aa 523c 7d7e 1bbd 5a42 e3bc
000001e0: f089 94bd c2ac 8f3c 33d4 55be 05f7 823d
000001f0: 088e 0abd a508 37bd fc0b 3dbe 45b0 76bd
00000200: 8588 bc3d 309d 083e 7b6a 05be 7ef6 ba3d
00000210: 749b 5f3c 2378 d83d b711 39bd 14e7 72bd
00000220: 67c1 61bc 1a57 303e 7484 89bd eb3a 403d
00000230: f908 9bbd c17d 7ebc 7025 6d3d 7cb0 0dbe
00000240: 9175 d6bd 7de8 82bc 6ee3 b13d 45f4 33bd
00000250: 077c cb3c 0144 4ebd 6855 013e 3950 86bd
00000260: 7a83 99bc 5c47 743d 588d abbd cebd 49be
00000270: 9691 afbd 5cb1 f4bc e2b2 8c3e 4a01 353e
00000280: e542 f23d e855 b73c 17d6 243d 9439 683e
00000290: b475 a4bd ab21 0c3d 6edd 4e3d 226e b0bc
000002a0: 91be 03bd ea5c 043c c4f1 b63d 8a48 aa3d
000002b0: 2414 64bd 0ce0 1bbd 82b3 2c3d 7aa8 c8bd
000002c0: 15eb 713d b221 d23d 0ac6 87bd 89a9 f3bc
000002d0: 266e 62bd b981 cfbd 1f38 193e fac5 31bd
000002e0: 5b90 52bd 387e d23d fa48 fa39 3ad4 a9bc
000002f0: 8ee2 023e 00bc 57bd 8b46 10be 0f12 f4bd
00000300: 9858 c1bd 0a45 6ebd 5cc5 a93a d27c 84bd
00000310: 4d61 943d acae e13d f0e1 e03b 20f7 b13c
00000320: 2fdd ebbb 7dc5 61bb eaa4 833c cdea 7f3d
00000330: d8a3 f5bd d350 8c3c 0ad7 6f3d 4d43 b73d
00000340: e253 a5bd 5aeb a03d 835b 07be 4291 023d
00000350: 1940 65bd 73ac a73c 507a 2a3d e794 afbd
00000360: 839d 01be 5332 0bbe 69cb a33d 283b 75bd
00000370: 3adb 023e 16a1 18be 7d14 aa3c 4690 11be
00000380: bdbe a33d 4f5f e93c 9746 e33d 37f5 76bd
00000390: 3b99 053e 4fec cc3d 3bb8 2b3d 0b96 c3bd
000003a0: d413 193e 72ab 9a3d 571a 85bd d3eb f3bd
000003b0: e286 a7bd 8eb5 7bbd ffaa c3bd d621 e03d
000003c0: ab11 883d 86da ab3d 83c5 003e 57ca 68bc
000003d0: fc75 a73c 3133 bd3d d033 a93d 8421 19be
000003e0: 8b3e 40bd acae 153e 3a4d 81bd ac64 09be
000003f0: 343e 1b3d cfd6 b03d 114a 813c d314 db3d
-0.016876183 -0.04948981 -0.06526144 0.019881746 0.06073293 0.023885686 -0.07240439 -0.052337315
-0.10034632 -0.009859675 -0.07529259 0.06142427 -0.05052799 -0.083200276 -0.053469084 -0.04990153
-0.00086688605 -0.049040217 -0.018664777 0.07400484 -0.024125153 0.01565331 0.0249577 -0.037647888
-0.066771336 0.011107096 0.0021910453 0.0334022 0.13503133 0.0066613182 -0.056444768 -0.0031273775
-0.04287968 0.043636978 0.08297258 0.006656973 0.043068223 -0.051539607 -0.01501466 0.051674552
0.12646504 0.07889118 -0.044069424 0.043853793 0.0054761097 -0.072548844 0.0061719483 -0.06243608
-0.016584953 -0.003295584 -0.026098458 -0.01395698 -0.030505918 0.038128573 -0.06014715 -0.013441299
0.025526531 -0.0063865916 0.07083433 -0.016310181 -0.026739862 0.03733706 -0.017458007 -0.08121562
-0.003795007 0.095368996 0.087049544 -0.05228783 0.10072739 -0.032419592 0.052787017 -0.022475345
-0.006037169 -0.072135895 0.010252306 0.010474715 0.07273077 -0.087288186 -0.03886861 0.081314236
0.04010368 0.04368023 0.061562482 0.026293429 -0.03520596 -0.027224466 -0.028082969 -0.023033652
-0.013602817 -0.010274064 -0.032296814 -0.09295943 -0.031705026 0.022704918 0.08945195 -0.07345962
-0.09485919 -0.089548856 -0.044405162 -0.014106798 0.020380193 0.05442781 0.0018012559 -0.015859604
-0.046078127 0.048870105 -0.0112381885 0.011597838 -0.01910551 0.041111935 -0.06640678 -0.0694331
0.08952096 -0.07105112 -0.009659481 0.020126354 -0.07765562 0.012858116 -0.037962426 -0.0277416
-0.07252872 0.017538432 -0.20881729 0.063947715 -0.033826858 -0.04468598 -0.18461603 -0.060226697
0.092057265 0.13341212 -0.130289 0.09129046 0.013647903 0.10569789 -0.04518291 -0.059302405
-0.013779021 0.17220727 -0.067147166 0.04693119 -0.07570071 -0.015532912 0.05789703 -0.13836855
-0.10471643 -0.01598 0.08685957 -0.043934125 0.024839414 -0.050357822 0.12630236 -0.0655827
-0.01873945 0.059638366 -0.083765686 -0.19701311 -0.0857269 -0.029869728 0.27480227 0.17676273
0.11829165 0.02237983 0.040243234 0.22678214 -0.080302626 0.034211796 0.05050414 -0.02153689
-0.03216416 0.008078793 0.08932832 0.08314617 -0.05568327 -0.038055465 0.04216338 -0.09797759
0.059062082 0.10260333 -0.0662957 -0.029743927 -0.055280827 -0.101321645 0.14962815 -0.043401696
-0.0514072 0.102779806 0.00047738088 -0.02073108 0.12781736 -0.052669525 -0.1408941 -0.11917507
-0.09440726 -0.05817131 0.0012952494 -0.0646912 0.07245121 0.11019644 0.0068628713 0.021724284
-0.007197998 -0.0034449988 0.016069848 0.062479783 -0.11994141 0.017128384 0.058554687 0.089483835
-0.0807264 0.0785739 -0.13218503 0.03187681 -0.05596933 0.020467972 0.041620553 -0.08573323
-0.12657742 -0.13593416 0.07997782 -0.05987087 0.12778941 -0.149052 0.020761723 -0.14215192
0.07995365 0.02848783 0.11097448 -0.06029245 0.13046734 0.1000601 0.041923743 -0.09550103
0.1494897 0.07552232 -0.064991646 -0.11910214 -0.08180024 -0.06145244 -0.09554099 0.10943954
0.06643995 0.083912894 0.12575345 -0.014208398 0.020442002 0.092382796 0.082618356 -0.14954191
-0.046934646 0.14617413 -0.06313558 -0.1341731 0.03790112 0.086347215 0.015782388 0.10697331

fc1.bias f4 [84]
00000000: 599f a5bd 0728 7a3d 0ce3 f23c 38bb 053d
00000010: 7e6d f13d d3da 68bd cfc2 84bd ebc0 d8bc
00000020: 33de 3abd 1243 a4bd 29ec c43d 5854 b0ba
00000030: 786c 943c 1d6c 8cbd 272d f9bc ae51 ac3d
00000040: bd40 35bd 9fdb 293d 8eb1 d9bd b20d 20bd
00000050: 4510 a23c f0e9 553d deb8 8f3c c4ce 12bc
00000060: e6d4 b03c 6f3e 8d3c 47d5 003e b89b 453b
00000070: d544 5a3d 2c85 ee3d fe80 0fbb 6ed1 ba3d
00000080: cd25 47bd ea44 073d 6cbc 943c f3ff 38bd
00000090: 16c4 bf3d 893c 003d e764 b83d 3e52 a8bc
000000a0: 820a 58bd 6b02 e2bc aa72 773d 3816 b73d
000000b0: f80f 8b3d b686 a8bd 8c94 a7bd b2bd 2f3d
000000c0: 0c7b a5bd a324 513d 4034 143d 367f aabc
000000d0: 56f1 ea3d ccb3 e33d 85d9 ce3d 3534 6a3d
000000e0: 3b5f efbc b055 90bd f9a6 84bc 1e4a 84bd
000000f0: 9f4c e63d f3f3 3e3d 029c b63c da94 5fbd
00000100: b19c a2bd 3e67 a0bd e443 9abd efaf bebc
00000110: a9fc 85bd 1655 b5bd 5351 793d 0f5a 743d
00000120: 3c9d 1c3d 60fa 983d d258 083d 9856 53bd
00000130: fdb1 f8bc d7cb 313d 5fae 1dbd c974 8fbd
00000140: 4ca3 863c 6f9f c1bd 2f98 49bd 6f58 713d
-0.08087034 0.06107333 0.02964928 0.03264925 0.11788462 -0.056849312 -0.06482469 -0.026459178
-0.045622062 -0.08020605 0.096153565 -0.0013452871 0.018118128 -0.068565585 -0.030417038 0.08414017
-0.044251192 0.041469213 -0.10629569 -0.03907556 0.019783149 0.052225053 0.017544206 -0.00896043
0.021585893 0.017241685 0.12581359 0.003015263 0.0532883 0.11646494 -0.0021896954 0.09121977
-0.048620034 0.033024706 0.018156253 -0.045165967 0.09363572 0.03130773 0.090036206 -0.020547029
-0.052744396 -0.027589044 0.060412087 0.08939785 0.06790155 -0.08228819 -0.0818263 0.042905517
-0.0808011 0.05106033 0.036182642 -0.020812612 0.114718124 0.11118278 0.10100082 0.057178695
-0.029220214 -0.070475936 -0.0161929 -0.06459449 0.11245083 0.046619367 0.022291187 -0.054585315
-0.07940043 -0.07832192 -0.0753248 -0.023277251 -0.06542332 -0.088541195 0.060868572 0.0596562
0.038235888 0.0746963 0.03328783 -0.051596254 -0.030358309 0.043407287 -0.03849637 -0.07004697
0.016435288 -0.09454238 -0.0492174 0.058922227

fc2.weight f4 [10, 84]
00000000: 7ee7 803d 77e8 6d3d c76e 803e d45b 75bd
00000010: 34c3 afbc 20c1 c5bd 84db 0b3d b497 4cbd
00000020: 6500 beba 4fcb adbc fac9 5abd be5f 8aba
00000030: 1822 dabd 0efb 2e3d 019c 5fbd d2a9 5cbe
00000040: 42c8 7cbd ff4a d6bc b886 1a3d d100 e73d
00000050: b684 173d 54ee 93be 9841 97bd 8c10 27be
00000060: 910c debd 81f2 83be 55da 123e 0a35 a33c
00000070: df02 ac3d c5f4 73bd 82dc b33c f852 4d3c
00000080: 223b 27be b17b 04be 45f9 1bbe a96d 9fbd
00000090: 47a0 0f3e 6bcb 8e3b 71dc 363e 4814 c03e
000000a0: 6ae7 cc3c 0eba 6d3e a4e9 53bc 520c 87bd
000000b0: 44ce cebc 041a 27bd fe08 34bd a251 acbe
000000c0: 9f33 9a3d fb31 8cbe 4343 353d 09d9 263d
000000d0: 6c14 ccbd e294 913d 5874 1ebd df93 81be
000000e0: 4923 40bd b4b6 b23d 0e81 c3bc e0de 1f3e
000000f0: bdbf af3e 2e71 aebd 4dcf e53c 3e8f 90be
00000100: cd4c 783e 4142 93bd 2973 6e3e 91c9 17be
00000110: f14a db3d 6e04 98bd a678 07be 4196 163c
00000120: ca8d 9bbe 784d 573e bd9c ce3e bf5f c3bd
00000130: 07bd 10be c22f 1c3e 79f9 54be be21 d43d
00000140: 6343 d53d 5d33 e53d d247 db3d cf7c 18be
00000150: 6941 c0bd 1572 f23d 1751 65bb 14f8 c83d
00000160: 9373 88be f03d 8f3d 3843 4cbe 8ccb f8bd
00000170: bea1 673d be6e 573d 4f8d 363e 4969 e4bd
00000180: 45e3 57bd 6da7 bebd a8a6 5d3e f529 f63c
00000190: d183 833d 88e4 b5bc b84d 083e 870a 453e
000001a0: 17ea bc3c 6418 943e 8f07 c13d 6e98 ad3c
000001b0: ca54 6ebe 40fc 4abe 94fa 9fbe c2a2 943e
000001c0: b46d f8bd 27bb 61be 1e74 b7bd c09c 6ebd
000001d0: d0df 413d 3dd0 c53e 749f 80be 7b22 73bd
000001e0: 99b0 9dbe 00f8 443e 3d02 4ebe bba3 29be
000001f0: d75c 07bd 78b5 0bbe 2a08 1ebd 0041 92be
00000200: d148 943e 7f82 cabd dab8 f13d 11cf b6be
00000210: e90c 3fbc f91f 503d 6f88 de3d fca7 3b3d
00000220: ea92 293e 7187 0e3e ec16 ae3d e0b6 933e
00000230: dc8e 123e f3e0 dbbd 1863 493e aa09 55bd
00000240: 62c5 1ebe a802 54be 5c9a 82bc 5281 3c3b
00000250: 5f1b 913d d8a6 35be 9bb0 1cbe 12f0 abbb
00000260: e831 c43b 4c1d 0fbd 1ed6 943e 133f 3e3d
00000270: 46d3 b83d 6e8a 12be d75b 7a3c 2cff 213e
00000280: 3f0f ec3e d98c 2ebe 180c 633a a788 0dbe
00000290: 4586 603e 0173 bc3d cac7 953d 21e5 16be
000002a0: 9666 bcbd 40e4 06be 765f 52be cd07 54be
000002b0: 056c 9fbc 7671 be3e 1c0a a43c 2b3f 0f3d
000002c0: f32d 15be 0edb c6bd 8d90 643e 681a d73c
000002d0: 1900 92bd bb5b 8c3d 9230 13bd 4509 1fbe
000002e0: be45 c0bd 57ac b53d d0e8 f2bd 1e83 8cbd
000002f0: ac7b 8cbe f238 6a3d a876 9abd 1861 703d
00000300: 8c24 1c3e b1a5 85be e40a 19be ffc1 88be
00000310: d7e3 1d3e f561 b93d a7bb c8bc 6b89 363d
00000320: f39e 90be 80be 073e ee69 09be db3c 1b3e
00000330: 5c37 373d e4ac 0a3e e353 b7be d878 d5bc
00000340: 8fee 17bd a668 433e 56c6 51bd c259 29be
00000350: f73a 95bd de86 8e3c e969 03bd 0820 05bd
00000360: b296 edbd 5e39 f5bc b32c cebd b3ac 0a3e
00000370: 6802 293e 792f e5bd 3552 303e 5da2 7d3e
00000380: 0656 333e 5874 ab3c 1c54 b5be 7354 233d
00000390: 06fc ecbc aa84 d03e 6954 e33c d958 883e
000003a0: 114d 75bd fe74 b43d 28b1 18be 4d23 c73d
000003b0: 13ba fe3d 00b3 bb3d aa95 603e f590 dcbd
000003c0: 891d 063e c998 e9bd 46f3 5b3e 28f4 0d3d
000003d0: dd23 a6bd 6bd1 793e 5fc0 16bc a623 7c3d
000003e0: d0e2 0cbe 6804 8a3d b10d 5c3d 4bd9 87be
000003f0: 3fce 89bd 30d1 36be 32fd ba3c 3568 b93e
0.06294154 0.058083024 0.25084516 -0.059902027 -0.021455385 -0.09655976 0.034144893 -0.049949363
-0.0014495967 -0.02121511 -0.053415276 -0.0010557098 -0.10651034 0.042719893 -0.054592136 -0.21549156
-0.06171442 -0.026158808 0.037726134 0.112794526 0.036991797 -0.28892767 -0.07385558 -0.16314906
-0.108422406 -0.25770953 0.143411 0.019922752 0.08398985 -0.059559602 0.021955732 0.012531988
-0.16331151 -0.1293781 -0.15231808 -0.07784588 0.14025985 0.0043577454 0.17857529 0.37515473
0.02501269 0.23215505 -0.012934122 -0.06594147 -0.02524484 -0.040796295 -0.043953888 -0.3365603
0.07529377 -0.27381882 0.0442536 0.040734325 -0.09964833 0.07108475 -0.038685173 -0.2530813
-0.04690865 0.08726254 -0.023865249 0.15612364 0.34325972 -0.08517681 0.02805295 -0.28234285
0.24248047 -0.07190371 0.23286118 -0.14822985 0.10707653 -0.0742272 -0.13229617 0.009191097
-0.30381614 0.21025646 0.40353957 -0.095397465 -0.14134608 0.15252593 -0.20798291 0.10357998
0.104132436 0.111914374 0.10707058 -0.1489136 -0.09387476 0.11838166 -0.003499096 0.09812942
-0.26650676 0.069942355 -0.19947517 -0.121481985 0.056550734 0.052595846 0.17827342 -0.11152894
-0.052706975 -0.09309278 0.21645606 0.030049304 0.06421626 -0.022203699 0.13310897 0.19242297
0.023060841 0.2892486 0.0942527 0.021190848 -0.23274532 -0.19822788 -0.31245863 0.29030424
-0.12130299 -0.22044049 -0.089576945 -0.058254957 0.047332585 0.38635436 -0.25121653 -0.059359055
-0.30798796 0.1923523 -0.20118041 -0.16566364 -0.033047523 -0.13643444 -0.038582005 -0.28565216
0.28961805 -0.098881714 0.11802836 -0.35704854 -0.011660793 0.05081174 0.108658664 0.0458145
0.1655995 0.13918854 0.08500466 0.2885046 0.14312309 -0.10736265 0.19666708 -0.05201117
-0.15504983 -0.20704138 -0.015942745 0.0028763604 0.07085299 -0.17739427 -0.15301745 -0.0052471245
0.0059873946 -0.03494005 0.29069608 0.04644687 0.09024672 -0.14310619 0.015280685 0.15819997
0.46105382 -0.17045917 0.0008661165 -0.1382166 0.2192622 0.09201623 0.07313497 -0.14735843
-0.09199254 -0.13173008 -0.20544228 -0.20706101 -0.019460687 0.3719594 0.020024352 0.03497235
-0.1456831 -0.0970975 0.22320767 0.026257709 -0.07128925 0.06853434 -0.035934992 -0.1553088
-0.09388302 0.08870762 -0.11860812 -0.06860946 -0.27438104 0.057183214 -0.07542163 0.058686346
0.15248317 -0.26102975 -0.1494556 -0.26710507 0.15418945 0.09051887 -0.024503542 0.044564646
-0.2824627 0.13256264 -0.13419315 0.15159933 0.04473053 0.13542515 -0.35806188 -0.0260586
-0.03709274 0.19082889 -0.05121454 -0.16538146 -0.07286637 0.017398294 -0.032083426 -0.03250125
-0.116010085 -0.029934581 -0.100671194 0.13542442 0.16504824 -0.11190695 0.1721886 0.24768968
0.17513284 0.0209295 -0.35415733 0.03987546 -0.028928768 0.40726215 0.02775021 0.26630285
-0.05988795 0.08811377 -0.1491133 0.0972353 0.124378346 0.09165001 0.21932092 -0.10769836
0.13097204 -0.114060946 0.2147952 0.034656674 -0.08112309 0.24396293 -0.009201138 0.061557434
-0.13758397 0.06739122 0.053723995 -0.2653297 -0.067287914 -0.17853236 0.022825811 0.36212316

fc2.bias f4 [10]
00000000: cf57 f53d dbf3 1abd c281 e4bd 5692 e7bc
00000010: e566 91bc b38d 0fbe c386 14bd 1f34 ed3d
00000020: a4c3 943d 5297 563d
0.11979639 -0.037830215 -0.11157562 -0.02826802 -0.01774926 -0.14018898 -0.03626133 0.11582207
0.07263878 0.052390404
