Handwritten_Digit_Recognition_Infosys_Internship_Oct2024/mlp_model.pth (torch, 985351 bytes, 20 tensors)

fc1.weight f4 [256, 784]
0.0181725 0.009878841 0.024896258 0.006535361 -0.008431937 0.017224833 0.0045219813 0.031571195
0.031979527 0.00069185655 -0.0071217413 0.0011126427 0.01333082 0.0077259727 0.05045558 -0.0004126316
-0.002965653 -0.012405383 0.018666225 -0.032915737 0.007907772 0.022217078 0.0044260323 0.0023895586
-0.00011147072 -0.022348223 0.02939141 0.012731825 -0.015577659 0.03241687 0.020557495 -0.027537173
-0.027657486 0.009390774 0.020996425 0.07107266 0.118047975 0.1645247 0.07746945 -0.02559821
0.035938207 0.10194267 0.1333667 0.101168774 0.09689563 0.14189224 0.17696483 0.071274295
0.051847365 -0.002221694 0.03446027 0.012193452 -0.01933656 0.031846028 0.009997663 0.006146899
-0.03142215 0.0326388 -0.051966436 -0.0002580922 0.119573 -0.010378611 0.013447291 0.08901318
-0.01654199 -0.120216675 0.0064858696 0.09183368 0.029578421 0.057966836 0.03325726 0.08781212
0.1239347 0.0023006154 0.0074905376 -0.06375152 0.10649448 0.012604331 -0.0074308855 0.14667091
0.18802142 0.026497759 -0.0012895197 0.029466758 -0.02751034 -0.005581615 -0.0056572706 0.05743088
-0.0346124 -0.12470939 -0.051526926 0.012541091 -0.024636103 0.058258045 0.049345605 -0.047245163
-0.017940767 -0.07761634 -0.21601762 -0.2058717 -0.04253274 0.027933996 -0.004690694 -0.09620547
-0.08759175 0.00039358702 0.07280623 0.08816446 -0.003605201 -0.03130165 -0.069294944 -0.007859164
0.0029937264 -0.016249042 0.03610479 0.1608739 0.18472245 0.052651696 0.021393064 0.07975022
0.06215893 0.03550173 0.061415594 0.021837352 0.024717053 -0.0007677535 0.037836917 0.016838653
0.021754561 0.0529602 0.10957823 0.0772637 -0.01846195 -0.094397485 -0.0071565015 0.022685163
-0.07467511 -0.13195065 0.009449137 -0.096181095 0.019215295 0.02903396 0.0629742 0.19525044
0.12033815 0.122284815 0.06371211 0.021551685 -0.12543938 -0.11468885 -0.12975253 -0.06320859
-0.056582563 0.017561888 -0.025335625 0.0032493866 -0.08349066 -0.049409956 0.058863252 0.12449896
0.13372217 0.02694334 -0.014779207 -0.14938264 -0.047265247 -0.12275288 -0.13427837 -0.088667825
-0.03207698 0.049945626 -0.17492403 0.04799036 0.020532863 -0.162356 -0.17727703 -0.18127088
-0.112272575 -0.0750525 0.056991328 0.11851099 0.083887815 0.13822453 0.062422495 0.032467745
0.025529826 0.00838844 -0.1124863 -0.17147776 0.056274164 0.024571521 -0.088656075 -0.03545327
-0.024294673 -0.10896054 -0.07561316 -0.010208304 0.021622462 0.059518147 -0.15861464 -0.017737325
-0.015008182 -0.19246262 -0.21848513 -0.121933214 0.012518568 0.10174977 0.12809935 0.054224774
0.090636715 0.13862066 0.09003659 0.07959091 -0.031436987 -0.14221737 -0.23296943 -0.23241669
-0.04246687 0.024766684 -0.011670463 0.01375266 -0.09132091 0.011513519 -0.03597671 -0.04934882
0.049015675 0.041543357 -0.010862386 0.08527676 0.029882839 -0.15994227 -0.10892788 0.018792523
0.048309177 0.057823606 0.043228056 -0.004607359 0.06604875 0.078501076 0.026178937 -0.0074429912
-0.02583759 -0.021588188 -0.11467312 -0.13686079 -0.12289034 0.013750029 0.0019449618 -0.083092205
-0.11921314 -0.1142898 0.100350484 0.049212795 0.09796893 -0.070862114 -0.005802263 0.14364782
00000000: 7fde 943c ddda 213c 3df3 cb3c 9526 d63b
00000010: 1b26 0abc 181b 8d3c 212d 943b cc50 013d
00000020: f7fc 023d b55d 353a 7f5d e9bb 18d6 913a
00000030: 8369 5a3c 282a fd3b 83aa 4e3d 7a56 d8b9
00000040: 675b 42bb f33f 4bbc e9e9 983c a7d2 06bd
00000050: 9a8f 013c 9700 b63c 4008 913b 249a 1c3b
00000060: 63c5 e9b8 9f13 b7bc 41c6 f03c 2599 503c
00000070: 7039 7fbc 8dc7 043d 3168 a83c a395 e1bc
00000080: f491 e2bc c3db 193c b200 ac3c 8b8e 913d
00000090: 23c3 f13d 2a79 283e 4ea8 9e3d 56b3 d1bc
000000a0: f133 133d 52c7 d03d 4891 083e 9331 cf3d
000000b0: 3771 c63d 334c 113e 4536 353e 42f8 913d
000000c0: e75d 543d d799 11bb 3626 0d3d 0bc7 473c
000000d0: b567 9ebc fb70 023d 3dcd 233c ed6b c93b
000000e0: 83b4 00bd 43b0 053d c2da 54bd 8c50 87b9
000000f0: b0e2 f43d 0d0b 2abc 0752 5c3c 8b4c b63d
00000100: 1183 87bc 2934 f6bd 6b87 d43b 4c13 bc3d
00000110: 724e f23c a26e 6d3d c438 083d d7d6 b33d
00000120: 7ad1 fd3d ecc5 163b 2f73 f53b 2890 82bd
00000130: c719 da3d 6582 4e3c c97e f3bb e630 163e
00000140: b088 403e d411 d93c 1a05 a9ba 4564 f13c
00000150: 5d5d e1bc fbe5 b6bb a060 b9bb a43c 6b3d
00000160: bbc5 0dbd a367 ffbd e60d 53bd 2679 4d3c
00000170: a7d1 c9bc fd9f 6e3d 9e1e 4a3d 2584 41bd
00000180: 84f8 92bc 51f5 9ebd b933 5dbe 08d0 52be
00000190: cf36 2ebd d6d5 e43c 65b4 99bb 6007 c5bd
000001a0: 4e63 b3bd 5b5a ce39 6f1b 953d 928f b43d
000001b0: 3c45 6cbb 2936 00bd 82ea 8dbd b9c3 00bc
000001c0: 6532 443b b61c 85bc 9ee2 133d 21bc 243e
000001d0: e227 3d3e 4ea9 573d 8240 af3c 1554 a33d
000001e0: 5d9a 7e3d 436a 113d eb8e 7b3d 3fe4 b23c
000001f0: 6b7b ca3c 1143 49ba e2fa 1a3d 37f1 893c
00000200: 9f36 b23c cbec 583d 8d6a e03d 6e3c 9e3d
00000210: 843d 97bc 7853 c1bd 1681 eabb 3cd6 b93c
00000220: 44ef 98bd 121e 07be 8ed0 1a3c 98fa c4bd
00000230: 6569 9d3c a1d8 ed3c 9ef8 803d bbef 473e
00000240: d973 f63d 7670 fa3d 7f7b 823d 298d b03c
00000250: 2e73 00be fde1 eabd d9dd 04be 8173 81bd
00000260: 1ec3 67bd f3dd 8f3c a88c cfbc a9f3 543b
00000270: 27fd aabd 1862 4abd 981a 713d 50f9 fe3d
00000280: 77ee 083e 48b8 dc3c 7d24 72bc c3f7 18be
00000290: 3499 41bd dd65 fbbd 4580 09be 7a97 b5bd
000002a0: 2763 03bd c993 4c3d 491f 33be 8a91 443d
000002b0: 8934 a83c a740 26be 1c88 35be 139f 39be
000002c0: 2aef e5bd 20b5 99bd bd6f 693d e4b5 f23d
000002d0: 60cd ab3d bb8a 0d3e bbae 7f3d e6fc 043d
000002e0: ed23 d13c ab6f 093c 385f e6bd de97 2fbe
000002f0: bd7f 663d 374a c93c 5191 b5bd 7337 11bd
00000300: 9f05 c7bc b426 dfbd 13db 9abd bb40 27bc
00000310: 9721 b13c 4dc9 733d e06b 22be de4d 91bc
00000320: e1e4 75bc ec14 45be 91ba 5fbe 1fb8 f9bd
00000330: ae1a 4d3c 2f62 d03d 7a2c 033e cc1a 5e3d
00000340: be9f b93d 93f2 0d3e 1b65 b83d 8f00 a33d
00000350: 12c4 00bd 6ea1 11be 8a8f 6ebe a4fe 6dbe
00000360: bef1 2dbd 80e3 ca3c 7835 3fbc d652 613c
00000370: 7506 bbbd 33a3 3c3c 515c 13bd fd21 4abd
00000380: a9c4 483d 5e29 2a3d 26f8 31bc 95a5 ae3d
00000390: dbcc f43c e8c7 23be 9515 dfbd c7f2 993c
000003a0: d8df 453d 72d8 6c3d e70f 313d 54f9 96bb
000003b0: 9144 873d 2cc5 a03d 3675 d63c 56e4 f3bb
000003c0: 5ba9 d3bc b6d9 b0bc bed9 eabd 3c25 0cbe
000003d0: eead fbbd cd47 613c 17ee fe3a 3f2c aabd
000003e0: 0526 f4bd c510 eabd 8e84 cd3d 5b93 493d
000003f0: efa3 c83d 2820 91bd e920 bebb 6a18 133e

fc1.bias f4 [256]
0.015849248 -0.013862495 0.0036416242 -0.02587596 0.0106426645 0.031503357 0.009360738 0.03452131
0.026709547 -0.034157593 0.023368038 -0.0029921047 0.018861156 0.013583542 -0.03352884 0.03504318
-0.004134686 0.02425177 -0.030638635 0.027796526 -0.03169882 -0.008388059 0.024259007 -0.031206496
-0.012303874 0.026269164 -0.017001681 -0.022037977 -0.033828456 -0.009339725 -0.004976216 -0.016461682
-0.018282898 0.0013711107 0.027999407 0.03416465 0.001104633 0.010260279 0.004018579 -0.017504608
-0.023058163 -0.020605901 0.036267236 -0.020875808 0.0093912985 0.02332887 0.036477044 0.005800477
-0.014178142 0.02196764 0.0011097767 0.00087980035 -0.013117773 0.03259862 -0.03063006 -0.005004734
0.01280881 0.038415812 -0.0338225 0.0310568 -0.010223869 -0.014303418 0.02432689 0.0041863592
0.029582765 0.019832417 0.012042848 -0.0041444087 0.011716454 0.016166365 0.016491603 0.0097710285
-0.002759639 -0.024302835 -0.030514622 0.008894537 0.000980448 -0.034645315 0.012982132 0.0045241923
0.018202068 -0.0019134267 0.005663865 0.031459987 -0.031813275 0.037979748 -0.022140872 0.028425785
0.0079789115 -0.004525152 -0.007823765 0.0152854305 0.008328105 -0.03394766 0.026293065 0.01675825
0.014782917 0.008812247 -0.018537568 -0.007814667 -0.005949581 0.0141075235 -0.011140407 -0.00460387
0.029849565 0.009747703 0.027009754 -0.019783007 0.0137918815 -0.00028352466 -0.013975395 0.02318437
0.021566074 0.0022177664 -0.0063125086 0.017930228 -0.023208605 -0.0008011493 0.01254118 0.031468358
0.0076505407 0.032861892 0.008613296 0.030991336 -0.02488312 -0.021929106 -0.020943388 0.0094594965
-0.0066557014 0.02989403 0.024777489 0.017461972 -0.0031073736 -0.00039131494 0.026755681 -0.0011512765
-0.033448894 0.01612157 -0.042593192 0.017344436 0.024319671 0.007979598 -0.027695209 0.032443188
0.00092524814 0.014945692 0.03507406 0.0017713913 0.019862577 0.03928366 0.029159186 -0.027260186
0.0013585355 0.009737075 0.02766126 -0.032947183 0.009388477 -0.026385045 0.03914789 0.03324776
-0.0074143438 -0.016541088 0.035616126 -0.008637331 -0.0030052203 0.011371865 -0.0057728845 0.02534238
-0.014358562 -0.031231241 -0.0064047235 0.010490014 0.015362347 0.0042992467 -0.032852262 0.0062053744
0.014826047 -0.032489818 0.026519785 0.00071016076 0.043756027 0.030329667 0.022983262 -0.034782093
0.019610321 0.008913086 -0.010274289 0.02890112 -0.0006323666 0.0037527399 0.019833019 -0.03183488
-0.033662777 0.019265795 -0.025682336 0.011184359 -0.030684466 0.0030083435 -0.017364275 -0.02131371
-0.019092746 0.02618029 0.02299286 0.008492727 0.028240172 -0.020441772 -0.023637773 -0.0003010433
0.01186891 -0.018063132 0.0159718 -0.03066593 -0.024828104 0.02445037 0.027710987 0.029960835
0.005802917 -0.006356599 0.011037195 0.021730555 -0.02416 -0.001974911 0.034437846 -0.008269681
-0.034206964 0.026529774 0.014258828 -0.009559596 0.028200794 -0.017054934 -0.016541399 -0.0018038044
0.008696642 -0.007131491 -0.0026913334 0.0048181275 0.00060798763 -0.009882138 0.033418242 0.0023146686
-0.034224793 -0.026098346 0.00048990425 0.024358703 -0.008053796 -0.00040790928 -0.020818897 0.0030261243
-0.035364598 -0.006867489 0.012518792 -0.020605566 -0.010497382 -0.01241543 0.014026532 0.020312123
00000000: 48d6 813c 851f 63bc 51a8 6e3b d2f9 d3bc
00000010: 925e 2e3c aa09 013d c85d 193c 3866 0d3d
00000020: fbcd da3c d5e8 0bbd 546e bf3c 3017 44bb
00000030: b682 9a3c 818d 5e3c 8955 09bd 7089 0f3d
00000040: 437c 87bb a6ab c63c e0fd fabc 8ab5 e33c
00000050: 9fd6 01bd 126e 09bc d3ba c63c c4a4 ffbc
00000060: 3096 49bc 6e32 d73c 1c47 8bbc fd88 b4bc
00000070: b58f 0abd a505 19bc 860f a3bb a6da 86bc
00000080: 04c6 95bc d7b6 b33a 035f e53c 3bf0 0b3d
00000090: 55c9 903a bb1a 283c 49ae 833b d365 8fbc
000000a0: 79e4 bcbc b5cd a8bc f48c 143d be03 abbc
000000b0: f6dd 193c 301c bf3c f468 153d ee11 be3b
000000c0: 704b 68bc 7bf5 b33c ed75 913a 67a2 663a
000000d0: eeeb 56bc 2186 053d e4eb fabc c0fe a3bb
000000e0: 0bdc 513c e659 1d3d 7689 0abd d56a fe3c
000000f0: 0482 27bc e258 6abc 3049 c73c ba2d 893b
00000100: 8e57 f23c 9877 a23c 5e4f 453c d2cd 87bb
00000110: 5ff6 3f3c 536f 843c 6619 873c aa16 203c
00000120: 0fdb 34bb bd16 c7bc cdf9 f9bc 64ba 113c
00000130: 6082 803a 3fe8 0dbd 02b3 543c ad3f 943b
00000140: 811c 953c f2cb faba f197 b93b 30dc 003d
00000150: a34e 02bd a790 1b3d c660 b5bc 31dd e83c
00000160: fbb9 023c ba47 94bb 402f 00bc be6f 7a3c
00000170: 9b72 083c b40c 0bbd 8e64 d73c 9948 893c
00000180: 0c34 723c 3e61 103c 19dc 97bc 1709 00bc
00000190: b4f4 c2bb 3e23 673c 4186 36bc 10dc 96bb
000001a0: 1387 f43c d4b4 1f3c 8f43 dd3c f90f a2bc
000001b0: 58f7 613c 09a6 94b9 0ef9 64bc 26ed bd3c
000001c0: 56ab b03c f257 113b 29d9 cebb 6ae2 923c
000001d0: f91f bebc 3804 52ba 8579 4d3c f7e4 003d
000001e0: 63b1 fa3b 319a 063d c81e 0d3c 8be1 fd3c
000001f0: afd7 cbbc aba4 b3bc 7891 abbc 01fc 1a3c
00000200: 1218 dabb 53e4 f43c 29fa ca3c 690c 8f3c
00000210: 14a5 4bbb 6729 cdb9 bb2e db3c 6ee6 96ba
00000220: b501 09bd 6211 843c 3376 2ebd eb15 8e3c
00000230: 0c3a c73c dcbc 023c 10e1 e2bc 26e3 043d
00000240: 5a8c 723a c7de 743c d1a9 0f3d 072e e83a
00000250: d8b6 a23c e7e7 203d 3fdf ee3c c150 dfbc
00000260: e310 b23a 4188 1f3c de99 e23c a0f3 06bd
00000270: 20d2 193c 7325 d8bc 8a59 203d ce2e 083d
00000280: 06f4 f2bb 2d81 87bc 37e2 113d 9883 0dbc
00000290: 3bf3 44bb 0f51 3a3c 772a bdbb d39a cf3c
000002a0: 2d40 6bbc a9d8 ffbc b7de d1bb 4fde 2b3c
000002b0: 5ab2 7b3c b2e0 8c3b 1890 06bd 7456 cb3b
000002c0: f3e8 723c 0b14 05bd 0540 d93c 152a 3a3a
000002d0: 8539 333d ec75 f83c 6547 bc3c ab77 0ebd
000002e0: d3a5 a03c 3108 123c 7e55 28bc 0bc2 ec3c
000002f0: 67c5 25ba 87f0 753b db78 a23c 4b65 02bd
00000300: fbe1 09bd 4dd3 9d3c c363 d2bc 9a3e 373c
00000310: fd5d fbbc a127 453b 863f 8ebc 179a aebc
00000320: 6468 9cbc 0c78 d63c 865b bc3c 1425 0b3c
00000330: ef57 e73c 8175 a7bc 01a4 c1bc 59d5 9db9
00000340: d175 423c 22f9 93bc 4bd7 823c 1e37 fbbc
00000350: 4f64 cbbc 244c c83c 2702 e33c 6d70 f53c
00000360: 6526 be3b 044b d0bb 5ad5 343c 4704 b23c
00000370: 31eb c5bc 826d 01bb b30e 0d3d 8e7d 07bc
00000380: 9a1c 0cbd f854 d93c dc9d 693c da9f 1cbc
00000390: 5a05 e73c cab6 8bbc d481 87bc a26d ecba
000003a0: 5c7c 0e3c 48af e9bb 1561 30bb 62e1 9d3b
000003b0: 5c61 1f3a b1e8 21bc 91e1 083d b2b1 173b
000003c0: 4c2f 0cbd 33cc d5bc eb6c 003a e78b c73c
000003d0: 12f4 03bc a8dc d5b9 648c aabc f151 463b
000003e0: 78da 10bd ac08 e1bb 9f1b 4d3c 01cd a8bc
000003f0: 36fd 2bbc 166a 4bbc 8acf 653c 9c65 a63c

bn1.weight f4 [256]
0.94251436 0.9022246 0.8439763 0.9558194 0.989297 0.93578506 1.0374163 0.9919052
0.86340857 0.9569163 0.91564596 0.8538931 0.96345884 1.0170221 0.97324294 0.8929437
0.9262987 0.8939173 0.94132733 0.8289456 0.8748331 0.8418829 0.9 1.0054631
0.8317915 0.8942231 0.9634597 0.87433237 0.93371296 0.98994964 1.0059928 0.9678099
1.0196791 1.0105404 0.9341287 0.88905233 0.99834234 0.89901227 1.0441898 1.1190825
0.9498667 0.84118307 0.9319636 0.89653647 0.96411556 0.8844059 0.9327757 0.9797787
0.8877075 0.81449074 0.9174101 0.9460094 0.89342934 0.94290364 0.8553133 1.0017537
0.9789688 0.95267004 0.9426328 0.9866925 0.9486444 0.9394428 0.9029592 0.9313165
1.0155451 1.0208017 0.9327787 0.85629976 1.0242214 0.9404805 0.92511636 1.0236902
0.9805275 1.0987709 0.9188391 1.0096283 0.82536393 0.9488528 0.89065814 0.9205864
0.97274643 0.8143144 0.92966723 0.9909723 0.84448636 0.9390004 1.0008452 1.0241829
0.9260685 0.85136724 0.96409434 0.91089493 0.880358 0.8666678 0.91555053 0.86917955
0.9912846 0.9393075 0.9134078 0.96246946 0.9313776 0.90836924 0.90309036 0.88679767
0.8577397 0.99112195 0.90001714 0.9123628 0.8987706 0.88577855 0.840217 0.9254997
0.9299557 0.8826855 0.8735505 0.8181027 0.95055985 0.9234122 1.0543145 0.9190419
1.0171326 0.83390933 0.9128157 0.97566247 0.8897711 0.9299958 0.9440347 0.95393336
1.0758672 0.9840128 0.924333 0.8917742 0.89986044 0.8972303 0.9192322 0.89100665
0.8996082 0.9176619 1.0283738 0.96520805 0.9873419 0.8458886 1.0024838 0.9058182
0.89805394 0.94505924 1.0352103 0.9705233 0.91976017 0.9554765 0.9999128 0.90281564
1.025098 0.84134 0.90655243 0.9807161 0.9485736 0.9531454 1.0707082 0.8577574
0.806278 0.8978562 0.9302641 0.9926592 0.9516725 0.8922908 0.91328484 0.93594074
0.8994197 0.9477772 0.9041415 0.8766703 0.8466732 0.9670362 0.8893596 0.8916954
0.9939229 0.9176424 0.9705361 0.8132815 1.0555162 0.8792145 0.9174477 0.8393313
0.94750273 0.91155463 1.007576 0.8083928 0.95199937 0.9216749 0.91132534 0.9122149
0.89490634 0.97699696 0.94818836 0.8711175 0.8714037 0.96254957 1.0452806 0.8567839
1.0125983 1.0032319 0.88572294 0.9520799 0.8722767 1.0008063 0.9138997 0.83903927
0.95126903 0.91134256 0.866419 0.88015217 0.9491245 0.89750546 0.90216476 0.99557436
0.8514887 0.9213364 0.8380996 1.0163699 0.920609 0.8629402 0.91824454 0.9582086
0.96993333 0.8983473 0.9913742 0.92624617 0.92720586 1.0157557 0.9170005 0.94968015
0.9091106 1.0488029 0.8912859 1.0121725 0.86752784 0.9414719 0.9999562 0.9519442
0.90428454 1.0267984 0.9120639 1.0310106 0.96458715 0.88694686 0.9621007 0.9669234
0.8652377 0.96384794 0.9317025 0.8276808 0.93214136 0.9552797 1.0662344 0.8481558
00000000: 9f48 713f 31f8 663f d50e 583f 95b0 743f
00000010: 9142 7d3f 9c8f 6f3f 0fca 843f 80ed 7d3f
00000020: 5808 5d3f 77f8 743f c667 6a3f bd98 5a3f
00000030: 3da5 763f c82d 823f 7326 793f f597 643f
00000040: e921 6d3f c4d7 643f d4fa 703f c735 543f
00000050: 10f5 5f3f a385 573f 6666 663f 04b3 803f
00000060: 4af0 543f ceeb 643f 4ba5 763f 3fd4 5f3f
00000070: d007 6f3f 576d 7d3f 5fc4 803f 64c2 773f
00000080: d884 823f 6359 813f 0f23 6f3f ef98 633f
00000090: 5d93 7f3f ab25 663f 03a8 853f 183e 8f3f
000000a0: 772a 733f c657 573f 2b95 6e3f 6a83 653f
000000b0: 47d0 763f 6d68 623f 63ca 6e3f c7d2 7a3f
000000c0: cc40 633f 7782 503f 63db 6a3f ac2d 723f
000000d0: c9b7 643f 2262 713f d0f5 5a3f 7739 803f
000000e0: b39d 7a3f 2fe2 733f 6250 713f e197 7c3f
000000f0: 5cda 723f 537f 703f 5628 673f c26a 6e3f
00000100: 62fd 813f a1a9 823f 96ca 6e3f 7636 5b3f
00000110: b019 833f 54c3 703f 6dd4 6c3f 4808 833f
00000120: da03 7b3f 86a4 8c3f 0a39 6b3f 803b 813f
00000130: 0d4b 533f 04e8 723f 2c02 643f 8dab 6b3f
00000140: e905 793f e976 503f acfe 6d3f 5cb0 7d3f
00000150: 4230 583f 5562 703f b21b 803f 6d18 833f
00000160: d312 6d3f 34f3 593f e3ce 763f 6930 693f
00000170: 245f 613f f1dd 5d3f 8561 6a3f 8d82 5e3f
00000180: d4c4 7d3f 7576 703f 18d5 693f 6664 763f
00000190: c36e 6e3f e38a 683f ee30 673f 2c05 633f
000001a0: d494 5b3f 2bba 7d3f 8667 663f 9c90 693f
000001b0: d415 663f 62c2 623f 7618 573f 8ced 6c3f
000001c0: 9411 6e3f adf7 613f 01a1 5f3f 2e6f 513f
000001d0: e457 733f be64 6c3f c7f3 863f 5446 6b3f
000001e0: 6731 823f 157b 553f 4aae 693f 04c5 793f
000001f0: 0ac8 633f 3414 6e3f 42ac 713f fa34 743f
00000200: 04b6 893f 43e8 7b3f 16a1 6c3f 504b 643f
00000210: 415d 663f e3b0 653f cd52 6b3f 0319 643f
00000220: b94c 663f e4eb 6a3f c1a1 833f e017 773f
00000230: 70c2 7c3f 288c 583f 6451 803f b4e3 673f
00000240: dde6 653f 67ef 713f c581 843f 3774 783f
00000250: 6775 6b3f 1c9a 743f 49fa 7f3f ed1e 673f
00000260: 6936 833f 0f62 573f d213 683f 3610 7b3f
00000270: b8d5 723f 5601 743f f70c 893f fd95 5b3f
00000280: 3c68 4e3f e7d9 653f ca25 6e3f ea1e 7e3f
00000290: cfa0 733f 2b6d 643f 09cd 693f d099 6f3f
000002a0: 5f40 663f 87a1 723f d175 673f 776d 603f
000002b0: 93bf 583f af8f 773f 12ad 633f 2646 643f
000002c0: bb71 7e3f 9dea 6a3f 0e75 783f 3733 503f
000002d0: 281b 873f 3414 613f dadd 6a3f 6bde 563f
000002e0: 8a8f 723f a55b 693f 40f8 803f d5f2 4e3f
000002f0: 3bb6 733f e3f2 6b3f 9e4c 693f ea86 693f
00000300: 9518 653f 791c 7a3f 79bc 723f 8e01 5f3f
00000310: 5014 5f3f a669 763f c1cb 853f 3156 5b3f
00000320: d29c 813f e769 803f bdbe 623f 82bb 733f
00000330: 874d 5f3f 6c1a 803f 55f5 693f 47cb 563f
00000340: 5e86 733f bf4d 693f a3cd 5d3f a751 613f
00000350: d3f9 723f ebc2 653f 45f4 663f f6dd 7e3f
00000360: 2afb 593f b4dc 6b3f b28d 563f 6918 823f
00000370: 08ad 6b3f a6e9 5c3f 1312 6b3f 294d 753f
00000380: 8d4d 783f 17fa 653f b3ca 7d3f 781e 6d3f
00000390: 5d5d 6d3f 4804 823f 8bc0 6a3f 3d1e 733f
000003a0: 79bb 683f 2c3f 863f 502b 643f de8e 813f
000003b0: 4e16 5e3f 4d04 713f 21fd 7f3f 9db2 733f
000003c0: 317f 673f 216e 833f 057d 693f 28f8 833f
000003d0: 2fef 763f f30e 633f 3b4c 763f 4b88 773f
000003e0: 3880 5d3f bdbe 763f 0e84 6e3f e4e2 533f
000003f0: d1a0 6e3f 368d 743f 5e7a 883f bd20 593f

bn1.bias f4 [256]
-0.34234062 -0.25934732 -0.24954544 -0.4327236 -0.23957399 -0.26365626 -0.38209352 -0.34139505
-0.4582134 -0.305717 -0.290576 -0.439164 -0.5036178 -0.2919534 -0.45841914 -0.3253825
-0.34129068 -0.5434995 -0.4236951 -0.3374714 -0.46152174 -0.1862059 -0.2616319 -0.4936592
-0.2872884 -0.19556254 -0.2873304 -0.20641662 -0.23212378 -0.24320203 -0.47434634 -0.31169388
-0.17384931 -0.26768345 -0.34827545 -0.36596844 -0.46192715 -0.40706983 -0.3924648 -0.5005584
-0.34852102 -0.24717237 -0.32158124 -0.41290924 -0.30903283 -0.26155332 -0.45489672 -0.31857598
-0.4549833 -0.31371915 -0.3309259 -0.26994124 -0.3387469 -0.2619202 -0.45717978 -0.19977796
-0.50284916 -0.3228972 -0.39981192 -0.40205386 -0.3343665 -0.3449539 -0.37120235 -0.42988887
-0.38390842 -0.4111898 -0.43181145 -0.42646682 -0.3952699 -0.4758813 -0.37552765 -0.36681014
-0.30791187 -0.45459336 -0.39133823 -0.17191143 -0.48445404 -0.36464542 -0.42068693 -0.2964918
-0.37846366 -0.29362842 -0.2692645 -0.32284728 -0.21896642 -0.39698637 -0.3593221 -0.39950302
-0.19972916 -0.34623945 -0.48527968 -0.4468789 -0.16060035 -0.16459456 -0.37015805 -0.44271484
-0.37802118 -0.3361804 -0.21453865 -0.29835388 -0.34331563 -0.37021184 -0.32258448 -0.27016327
-0.41369805 -0.2662394 -0.3690455 -0.40406024 -0.33744666 -0.47842556 -0.39402586 -0.30274984
-0.40848875 -0.4011733 -0.4598135 -0.47327268 -0.41690934 -0.39153928 -0.512082 -0.2243886
-0.3326925 -0.3366963 -0.48629403 -0.15023974 -0.4709766 -0.28981352 -0.30377495 -0.45148438
-0.38236284 -0.4263469 -0.465591 -0.35426673 -0.3116145 -0.38522694 -0.42670196 -0.24976617
-0.26415342 -0.40503076 -0.3368311 -0.48591748 -0.40689585 -0.35187954 -0.35696465 -0.38515207
-0.36597872 -0.41501525 -0.54187506 -0.21605588 -0.4594863 -0.38483182 -0.3419505 -0.44988552
-0.33874136 -0.34021914 -0.34468555 -0.3764475 -0.52212703 -0.40652338 -0.4033106 -0.40672094
-0.46217728 -0.24003504 -0.5139528 -0.47899717 -0.25583395 -0.3062113 -0.24483092 -0.32552156
-0.31514382 -0.42723215 -0.43106782 -0.34946764 -0.34871426 -0.25811538 -0.45604587 -0.2994997
-0.37378484 -0.2849767 -0.32925949 -0.47441655 -0.37505296 -0.3350905 -0.3536998 -0.31565037
-0.40916693 -0.38635466 -0.21738344 -0.39956957 -0.37942696 -0.3000086 -0.4574355 -0.43166372
-0.20433916 -0.49908936 -0.4240349 -0.33975643 -0.333878 -0.34681168 -0.40207914 -0.30259958
-0.12100549 -0.5642717 -0.48712873 -0.33725134 -0.46787697 -0.50328124 -0.44347233 -0.5242763
-0.26350883 -0.33681566 -0.44206586 -0.48839495 -0.42601267 -0.4692696 -0.341489 -0.3879348
-0.41093606 -0.34496775 -0.4259832 -0.47398633 -0.3841564 -0.30742896 -0.39204064 -0.2748084
-0.39922333 -0.25238204 -0.5159069 -0.27315822 -0.32676616 -0.42546275 -0.28457373 -0.3719541
-0.25513607 -0.240786 -0.39404914 -0.30073285 -0.27840623 -0.52641153 -0.3929921 -0.38251674
-0.28475568 -0.42001727 -0.4587984 -0.5436293 -0.38536087 -0.38449278 -0.37006044 -0.3209724
-0.22193024 -0.61745584 -0.20194572 -0.3818032 -0.34213707 -0.26057413 -0.45520762 -0.34573933
00000000: 4547 afbe 2cc9 84be d788 7fbe f38d ddbe
00000010: e252 75be f4fd 86be c3a1 c3be 55cb aebe
00000020: f29a eabe f086 9cbe 61c6 94be 1bda e0be
00000030: 19ed 00bf eb7a 95be eab5 eabe 8998 a6be
00000040: a7bd aebe c922 0bbf 90ee d8be 0dc9 acbe
00000050: 944c ecbe c2ac 3ebe 9ef4 85be e6c0 fcbe
00000060: 7717 93be 8c41 48be f81c 93be e15e 53be
00000070: dbb1 6dbe f409 79be 86dd f2be 5796 9fbe
00000080: 8e05 32be ce0d 89be 2951 b2be 3760 bbbe
00000090: b781 ecbe 756b d0be 25f1 c8be 9824 00bf
000000a0: 5971 b2be c11a 7dbe 4ca6 a4be d768 d3be
000000b0: 8d39 9ebe 51ea 85be 39e8 e8be 641c a3be
000000c0: 92f3 e8be cc9f a0be 1f6f a9be bd35 8abe
000000d0: 3c70 adbe 681a 86be 7813 eabe 9892 4cbe
000000e0: b9ba 00bf c852 a5be 26b4 ccbe 01da cdbe
000000f0: 1632 abbe cc9d b0be 3c0e bebe 651a dcbe
00000100: a58f c4be 7887 d2be 6416 ddbe dc59 dabe
00000110: d160 cabe b7a6 f3be 2945 c0be 8ace bbbe
00000120: a0a6 9dbe 76c0 e8be 7c5d c8be 8d09 30be
00000130: 5c0a f8be ceb2 babe 4764 d7be c6cd 97be
00000140: fdc5 c1be 7756 96be 09dd 89be 3d4c a5be
00000150: bc38 60be cc41 cbbe 11f9 b7be a98b ccbe
00000160: cd85 4cbe 4c46 b1be 9476 f8be 50cd e4be
00000170: 6b74 24be 7a8b 28be 5b85 bdbe 85ab e2be
00000180: fe8b c1be d61f acbe 05b0 5bbe d7c1 98be
00000190: 11c7 afbe 688c bdbe cb29 a5be d752 8abe
000001a0: 3bd0 d3be 8850 88be 88f3 bcbe fce0 cebe
000001b0: cfc5 acbe 32f4 f4be c2bd c9be 0702 9bbe
000001c0: 7025 d1be 9666 cdbe ad6c ebbe cc50 f2be
000001d0: 2475 d5be d677 c8be ce17 03bf 20c6 65be
000001e0: ac56 aabe 7563 acbe 88fb f8be 72d8 19be
000001f0: d823 f1be 7062 94be 6488 9bbe f628 e7be
00000200: 10c5 c3be 244a dabe f261 eebe 7362 b5be
00000210: f08b 9fbe 773c c5be ae78 dabe b4c2 7fbe
00000220: 1e3f 87be 3160 cfbe 2075 acbe 2dca f8be
00000230: a754 d0be 8e29 b4be 12c4 b6be a732 c5be
00000240: 9061 bbbe e17c d4be 53b8 0abf c13d 5dbe
00000250: ca41 ebbe ad08 c5be 2314 afbe 6557 e6be
00000260: 826f adbe 3431 aebe a07a b0be babd c0be
00000270: 1eaa 05bf d523 d0be ba7e cebe ba3d d0be
00000280: 80a2 ecbe bfcb 75be 6992 03bf 1e3f f5be
00000290: abfc 82be bac7 9cbe f5b4 7abe c3aa a6be
000002a0: 885a a1be 2cbe dabe ecb4 dcbe 6ced b2be
000002b0: ad8a b2be b327 84be d87e e9be 0658 99be
000002c0: ba60 bfbe 77e8 91be b394 a8be bae6 f2be
000002d0: f106 c0be fb90 abbe 2418 b5be ed9c a1be
000002e0: 547e d1be 47d0 c5be c499 5ebe 6294 ccbe
000002f0: 4044 c2be ba9a 99be fc34 eabe 0703 ddbe
00000300: 493e 51be a488 ffbe 1a1b d9be 8ef4 adbe
00000310: 0ff2 aabe 4d91 b1be 51dd cdbe 55ee 9abe
00000320: bad1 f7bd 1c74 10bf f068 f9be 35ac acbe
00000330: 928d efbe 0ad7 00bf ce0e e3be f936 06bf
00000340: a1ea 86be 1a73 acbe 7556 e2be e70e fabe
00000350: 551e dabe 1b44 f0be a5d7 aebe 649f c6be
00000360: 3666 d2be 9d9f b0be 781a dabe 56ae f2be
00000370: 26b0 c4be 5467 9dbe 8db9 c8be b0b3 8cbe
00000380: 0067 ccbe 3838 81be 7912 04bf 65db 8bbe
00000390: e54d a7be 41d6 d9be a6b3 91be c570 bebe
000003a0: 32a1 82be 9b90 76be cfc0 c9be a8f9 99be
000003b0: 438b 8ebe e8c2 06bf 4336 c9be 3cd9 c3be
000003c0: 7fcb 91be 810c d7be a0e7 eabe 4a2b 0bbf
000003d0: 054e c5be 3ddc c4be 9078 bdbe 7f56 a4be
000003e0: ae41 63be 9611 1ebf dcca 4ebe b67b c3be
000003f0: 972c afbe f969 85be f910 e9be bf04 b1be

bn1.running_mean f4 [256]
3.6388826 -0.07647826 -3.4096184 -6.9079294 8.133633 -0.9004754 7.9662037 -5.8866196
-0.8816711 -2.5535147 9.651712 9.637679 -6.804299 9.024414 6.560318 -1.9207525
-3.798742 2.3401241 4.2353277 5.8503413 -7.486553 -4.014578 4.639944 -0.3623436
7.6919637 4.5314794 -4.546397 -5.2496777 7.933243 -0.28147563 -4.8043823 8.790409
-1.2077235 1.0968951 -2.3904114 -5.22524 -0.5853591 4.2708526 0.50948524 -1.9411182
-1.4575083 -2.0089147 -1.2820694 -2.2215514 8.643269 -0.9513915 -1.7235569 -2.4695168
-1.1383278 6.598254 2.4564087 4.2950687 -3.8606718 -1.2531848 -1.5920377 11.829916
-1.7314901 8.862268 4.506956 -3.6491416 -2.796727 -1.454294 4.9476485 2.771212
-2.8650458 -1.9953347 -2.0066984 9.9241 2.930016 -9.050448 9.769338 -6.188778
1.2256567 -12.918194 -7.4573746 -0.6293367 -2.3724859 13.514386 -4.9289145 -5.163952
4.5717325 7.770476 6.1715217 5.0935354 -4.5110135 -5.270024 -4.372335 -3.3500967
4.7212057 6.377223 -4.869661 1.8543173 -0.34969985 6.696054 -5.383807 6.2479844
-1.2052907 -0.08530928 -1.457065 0.31834933 8.82485 7.8109913 -0.029656222 2.2195363
0.18805487 0.5528927 3.3125064 0.46009588 -3.9046493 3.118765 5.7960553 7.8565354
-5.1134763 2.1220148 4.1205435 -0.5338893 8.520904 6.1263494 -1.9651922 11.2742
-0.01401614 1.8339969 6.799371 -3.90201 0.46270522 2.5784726 -8.633285 7.2629175
2.2185104 3.139587 10.15442 10.018237 0.0537666 -0.8224786 8.793159 4.343015
11.638839 4.641713 12.499995 -1.4173411 -0.9821601 6.799701 -8.5440235 3.8485339
1.7692946 1.3664678 -3.790453 7.600162 -3.6870716 -9.129663 -1.9507511 0.5845201
6.7318206 1.8688945 -6.037525 0.57852066 -4.1620436 4.5639677 -0.75130105 -4.0957947
4.6719584 -12.577815 -0.97506267 5.994731 4.7277427 5.938903 -3.5394533 -0.45320317
4.414263 1.7954605 6.4019833 4.958419 6.168511 -0.30122066 4.5424576 4.414124
4.0353694 -12.788748 2.0116866 2.5322351 -4.8423676 -7.56498 6.383522 14.567877
0.6881988 5.7435055 -4.6520553 5.9953566 -0.7436331 10.261704 2.4278846 -13.591299
7.16157 -1.9242928 -8.376281 4.4669886 0.968337 -7.936201 9.733515 4.914102
2.7714202 -2.4241176 -0.50235045 -3.1227224 -4.038043 -2.408472 9.958347 2.5286207
12.37433 10.100301 2.4916604 -0.3912484 4.704603 -2.9583032 5.583841 0.6746213
8.313049 1.781942 1.690644 -3.86959 7.9253583 8.936124 -4.7418528 -2.7318854
-5.7926645 8.471354 -1.3412402 2.6167963 10.208106 -0.054597937 -1.0818827 -8.79788
-2.5811703 2.0527527 1.9264132 -1.6821754 11.351735 -4.693799 -2.5598025 2.0269127
1.0225687 -0.18502825 -0.03676464 -9.370269 -5.148882 14.356016 -7.156093 4.8460727
-9.248498 -9.543526 2.3734617 0.8059436 -0.78399414 -8.353992 -0.84161407 9.478749
00000000: 74e3 6840 a2a0 9cbd 3037 5ac0 c20d ddc0
00000010: 5c23 0241 8e85 66bf 24eb fe40 305f bcc0
00000020: 32b5 61bf c96c 23c0 6a6d 1a41 ef33 1a41
00000030: d1bc d9c0 0064 1041 20ee d140 38db f5bf
00000040: 971e 73c0 98c4 1540 ce87 8740 ff35 bb40
00000050: d891 efc0 6c77 80c0 6c7a 9440 1a85 b9be
00000060: 9124 f640 e101 9140 167c 91c0 5cfd a7c0
00000070: 20dd fd40 931d 90be 80bd 99c0 84a5 0c41
00000080: af96 9abf 0f67 8c3f 80fc 18c0 2b35 a7c0
00000090: 18da 15bf d3aa 8840 a06d 023f 9076 f8bf
000000a0: a28f babf 0f92 00c0 da1a a4bf e62d 0ec0
000000b0: d44a 0a41 658e 73bf 839d dcbf 900c 1ec0
000000c0: bab4 91bf e624 d340 cd35 1d40 3471 8940
000000d0: 3f15 77c0 5c68 a0bf e4c7 cbbf 5647 3d41
000000e0: 78a1 ddbf dacb 0d41 fc38 9040 898b 69c0
000000f0: 93fd 32c0 4e26 babf 2353 9e40 8a5b 3140
00000100: e95c 37c0 2167 ffbf bf6d 00c0 1dc9 1e41
00000110: 6285 3b40 a3ce 10c1 354f 1c41 780a c6c0
00000120: 52e2 9c3f ecb0 4ec1 d0a2 eec0 361c 21bf
00000130: cfd6 17c0 ed3a 5841 abb9 9dc0 183f a5c0
00000140: a24b 9240 bda7 f840 1b7d c540 3efe a240
00000150: 395a 90c0 09a4 a8c0 2bea 8bc0 fc67 56c0
00000160: 1e14 9740 3612 cc40 43d4 9bc0 455a ed3f
00000170: dc0b b3be 1346 d640 2648 acc0 7def c740
00000180: f746 9abf a2b6 aebd 1b81 babf affe a23e
00000190: 9632 0d41 a4f3 f940 9bf1 f2bc e20c 0e40
000001a0: 7591 403e 608a 0d3f 1b00 5440 b091 eb3e
000001b0: c6e5 79c0 d999 4740 4979 b940 bd68 fb40
000001c0: 99a1 a3c0 17cf 0740 7edb 8340 f8ac 08bf
000001d0: 9f55 0841 0e0b c440 6b8b fbbf 2063 3441
000001e0: f4a3 65bc 69c0 ea3f 7294 d940 88ba 79c0
000001f0: b3e7 ec3e b205 2540 ef21 0ac1 d269 e840
00000200: 13fc 0d40 feee 4840 8178 2241 b34a 2041
00000210: 5e3a 5c3d f58d 52bf c7b0 0c41 fbf9 8a40
00000220: af38 3a41 ea88 9440 fbff 4741 6f6b b5bf
00000230: d86e 7bbf 2797 d940 52b4 08c1 614e 7640
00000240: 3f78 e23f 6be8 ae3f c896 72c0 8734 f340
00000250: fbf8 6bc0 1a13 12c1 36b2 f9bf 1ca3 153f
00000260: 136b d740 ef37 ef3f 6833 c1c0 ee19 143f
00000270: 762f 85c0 060c 9240 4455 40bf c010 83c0
00000280: af80 9540 bb3e 49c1 b59d 79bf d6d4 bf40
00000290: ab49 9740 7e0b be40 6786 62c0 3f0a e8be
000002a0: a441 8d40 a6d1 e53f 0cdd cc40 5eab 9e40
000002b0: 7164 c540 9839 9abe d05b 9140 8140 8d40
000002c0: bf21 8140 b69e 4cc1 79bf 0040 2410 2240
000002d0: adf4 9ac0 5114 f2c0 d045 cc40 0616 6941
000002e0: cc2d 303f ccca b740 a3dd 94c0 f6d9 bf40
000002f0: bd5e 3ebf f12f 2441 7662 1b40 f675 59c1
00000300: 952b e540 3a4f f6bf 3f05 06c1 92f1 8e40
00000310: efe4 773f 5cf5 fdc0 7abc 1b41 5340 9d40
00000320: f35e 3140 be24 1bc0 0a9a 00bf afda 47c0
00000330: a637 81c0 6824 1ac0 6455 1f41 ecd4 2140
00000340: 41fd 4541 d59a 2141 5d77 1f40 b651 c8be
00000350: 1c8c 9640 d754 3dc0 d3ae b240 fbb3 2c3f
00000360: 4002 0541 ad16 e43f 0667 d83f 5da7 77c0
00000370: 899c fd40 5dfa 0e41 42bd 97c0 36d7 2ec0
00000380: 825d b9c0 aa8a 0741 c2ad abbf 9779 2740
00000390: 6754 2341 16a2 5fbd 227b 8abf 1ec4 0cc1
000003a0: e531 25c0 4d60 0340 b594 f63f 8651 d7bf
000003b0: b5a0 3541 9a33 96c0 ced3 23c0 f0b8 0140
000003c0: 88e3 823f 0c78 3dbe 8596 16bd 9fec 15c1
000003d0: a4c3 a4c0 3eb2 6541 b7fe e4c0 0713 9b40
000003e0: d9f9 13c1 48b2 18c1 cce6 1740 5252 4e3f
000003f0: d7b3 48bf f4a9 05c1 0574 57bf f5a8 1741

bn1.running_var f4 [256]
15.090649 11.18496 10.560114 9.433638 8.700489 6.3680263 12.219351 7.011167
13.722777 9.97408 5.62817 11.583663 7.2887073 9.639186 7.1377244 10.848074
10.927117 7.304377 8.927246 13.674059 7.902415 5.747323 11.346317 6.0402718
10.660506 10.449789 9.40507 10.208817 9.040023 6.767648 10.698851 13.893567
5.6664424 7.151904 12.86889 7.513894 5.9842334 10.838899 7.236101 6.1304584
9.867403 11.87352 6.330315 10.066766 13.036079 10.548467 8.066111 10.495671
6.757913 10.063531 6.6374927 8.705779 9.607394 13.0824 12.50357 11.376758
9.402343 10.555169 11.822209 10.013658 10.179225 8.615082 5.539359 7.6281424
8.534823 5.8879576 12.721009 10.509198 12.102217 11.423862 10.438197 5.8640146
11.517577 9.201647 7.6238265 8.294464 9.553868 12.6565 9.0655775 11.540061
8.238865 6.210405 9.7311735 6.0652328 5.316366 10.004448 10.031178 14.0876875
7.459347 10.037829 13.052803 9.8847 12.801814 7.557364 10.298187 8.215359
11.563903 16.901579 9.806383 10.256087 7.4254284 11.978369 9.679913 6.5180717
9.832105 5.7112083 14.357144 15.890264 7.3769097 7.798062 21.265694 10.163791
9.593682 10.922264 13.958293 10.095842 8.303219 9.309598 7.9645514 14.468488
5.9054456 8.948104 7.9765725 13.6222315 12.150767 8.572 8.485212 8.127175
6.7530036 9.493426 8.454165 11.974417 4.513003 6.589509 8.048879 17.7779
7.9008994 9.837267 7.786451 9.189327 9.251528 9.737026 6.821503 7.6526995
6.577472 8.052168 8.406016 10.424071 16.92088 11.094908 8.620187 7.1282935
19.7732 16.236628 9.759854 7.9220734 8.744849 9.482251 7.2197075 11.389769
12.787352 9.990408 8.479336 6.979994 11.899322 14.00444 7.9619346 7.464264
7.9458666 6.9424787 9.709925 7.4204803 9.249938 10.2101 10.917939 12.446079
11.890894 5.6466646 15.430498 8.335355 8.017751 9.788483 8.197834 11.97986
7.428979 8.682622 7.5283737 11.135006 8.666149 7.9733167 9.072639 6.6631103
13.000479 10.25436 9.459551 8.227929 9.249737 5.6316195 10.492326 8.829498
6.849856 6.468481 11.937221 5.1883993 9.259616 5.380826 8.432497 9.262999
12.193763 6.949216 14.822785 10.844941 15.167053 10.277457 9.969667 9.739312
11.170921 15.274965 11.226574 9.161382 8.761047 14.426295 12.038759 11.463104
9.469054 8.243446 8.555616 7.77672 10.976777 9.449484 6.9520617 10.379454
7.8428407 8.595161 7.7699885 10.339286 10.683248 8.778219 12.364752 6.067922
14.532393 8.029583 6.7504315 10.495893 7.8804083 14.766245 10.924591 10.328415
10.020799 6.9384704 9.336025 7.0702987 8.78287 7.804645 9.820299 9.345442
00000000: 4c73 7141 99f5 3241 3af6 2841 2ef0 1641
00000010: 3435 0b41 dfc6 cb40 7682 4341 7b5b e040
00000020: 7f90 5b41 d595 1f41 f819 b440 af56 3941
00000030: 173d e940 1b3a 1a41 3d68 e440 b691 2d41
00000040: 79d5 2e41 75bd e940 00d6 0e41 f2c8 5a41
00000050: 95e0 fc40 12ea b740 848a 3541 e849 c140
00000060: 6f91 2a41 5632 2741 2b7b 1641 5057 2341
00000070: efa3 1041 9390 d840 7e2e 2b41 0d4c 5e41
00000080: 7f53 b540 66dc e440 f9e6 4d41 d271 f040
00000090: d77e bf40 216c 2d41 248e e740 b72c c440
000000a0: e2e0 1d41 f0f9 3d41 f191 ca40 7911 2141
000000b0: c893 5041 85c6 2841 ca0e 0141 45ee 2741
000000c0: d340 d840 3904 2141 5766 d440 df4a 0b41
000000d0: e3b7 1941 8351 5141 9f0e 4841 3307 3641
000000e0: ff6f 1641 f9e1 2841 c527 3d41 f137 2041
000000f0: 1bde 2241 60d7 0941 6e42 b140 be19 f440
00000100: a38e 0841 266a bc40 4189 4b41 ad25 2841
00000110: aea2 4141 24c8 3641 db02 2741 02a6 bb40
00000120: ff47 3841 f239 1341 63f6 f340 20b6 0441
00000130: a5dc 1841 0681 4a41 9b0c 1141 17a4 3841
00000140: 64d2 0341 a3bb c640 e3b2 1b41 6316 c240
00000150: ac1f aa40 3812 2041 b57f 2041 2b67 6141
00000160: f8b2 ee40 f39a 2041 48d8 5041 bb27 1e41
00000170: 3bd4 4c41 edd5 f140 60c5 2441 1c72 0341
00000180: bf05 3941 6f36 8741 f2e6 1c41 ef18 2441
00000190: 1c9d ed40 66a7 3f41 ece0 1a41 0b94 d040
000001a0: 4d50 1d41 38c2 b640 ddb6 6541 853e 7e41
000001b0: a50f ec40 b989 f940 2420 aa41 e39e 2241
000001c0: b97f 1941 98c1 2e41 2b55 5f41 9288 2141
000001d0: fcd9 0441 1df4 1441 9bdd fe40 ed7e 6741
000001e0: 69f9 bc40 6f2b 0f41 1540 ff40 a9f4 5941
000001f0: 8b69 4241 e926 0941 6ec3 0741 e908 0241
00000200: 9b18 d840 13e5 1741 4344 0741 3697 3f41
00000210: 856a 9040 42dd d240 35c8 0041 2439 8e41
00000220: 2bd4 fc40 7265 1d41 9b2a f940 7c07 1341
00000230: 4206 1441 dcca 1b41 c149 da40 eae2 f440
00000240: a77a d240 aed5 0041 0b7f 0641 ffc8 2641
00000250: f65d 8741 be84 3141 49ec 0941 fb1a e440
00000260: 832f 9e41 9de4 8141 5d28 1c41 a081 fd40
00000270: e7ea 0b41 4db7 1741 d807 e740 7e3c 3641
00000280: fe98 4c41 b6d8 1f41 5cab 0741 1c5c df40
00000290: 9f63 3e41 3012 6041 2bc8 fe40 40db ee40
000002a0: 8a44 fe40 c928 de40 da5b 1b41 9374 ed40
000002b0: bfff 1341 925c 2341 e1af 2e41 2423 4741
000002c0: 1a41 3e41 7ab1 b440 52e3 7641 9d5d 0541
000002d0: b548 0041 a09d 1c41 542a 0341 82ad 3f41
000002e0: 32ba ed40 05ec 0a41 70e8 f040 fc28 3241
000002f0: 8ca8 0a41 6925 ff40 8829 1141 3338 d540
00000300: f601 5041 dc11 2441 525a 1741 99a5 0341
00000310: ecfe 1341 3a36 b440 91e0 2741 a045 0d41
00000320: 0532 db40 ccfd ce40 dbfe 3e41 5e07 a640
00000330: 6327 1441 ba2f ac40 82eb 0641 3e35 1441
00000340: a719 4341 fa5f de40 212a 6d41 e184 2d41
00000350: 40ac 7241 7770 2441 c283 1f41 39d4 1b41
00000360: 18bc 3241 4266 7441 0ca0 3341 0595 1241
00000370: 402d 0c41 1bd2 6641 c29e 4041 e068 3741
00000380: 3f81 1741 28e5 0341 cee3 0841 e4da f840
00000390: e1a0 2f41 1631 1741 4a77 de40 3e12 2641
000003a0: 8df8 fa40 c885 0941 bfa3 f840 b76d 2541
000003b0: 95ee 2a41 9673 0c41 06d6 4541 6b2c c240
000003c0: af84 6841 2c79 0041 8903 d840 2def 2741
000003d0: 4e2c fc40 8a42 6c41 20cb 2e41 3041 2541
000003e0: 3155 2041 f307 de40 5c60 1541 e33f e240
000003f0: a386 0c41 a7bf f940 f21f 1d41 ee86 1541

fc2.weight f4 [128, 256]
-0.19218072 -0.0022496006 0.09734058 0.007501412 0.041425068 -0.017407753 -0.08857037 -0.034260094
0.11123876 0.11183046 0.10728267 -0.058928873 -0.03631709 -0.17224728 0.036074713 0.020998953
-0.16351658 -0.012989021 -0.056498393 -0.14340465 -0.04892111 -0.042222813 0.11137197 0.119148284
0.016589085 0.049157217 -0.0918361 0.05943199 0.02276652 -0.0152181275 0.0671248 0.04365559
-0.10674736 0.079939194 -0.04277 0.051293865 -0.10316896 -0.025545564 0.002380224 -0.01491709
-0.07674259 -0.0075442726 0.026316164 0.0022182337 -0.07140155 0.10158999 -0.087759346 0.03425689
0.05913842 -0.055661775 0.06822954 -0.14821517 0.02475529 -0.14408551 0.1082309 -0.006192922
-0.08735944 -0.02728727 -0.033871774 0.08269286 -0.08203777 0.01020864 0.06493061 0.017525721
-0.012007492 0.07547378 -0.07973134 0.10267033 0.09942934 -0.2479048 -0.02045721 0.16533555
-0.08859663 0.15735751 -0.0010890131 -0.14847796 -0.12650646 0.13892554 -0.06250223 -0.0745221
-0.034200724 -0.015573085 -0.063395195 0.14717963 -0.060080055 0.051144972 -0.06355061 0.11139594
-0.04498211 -0.0009299952 0.09450514 0.14343406 0.011765232 0.02527807 0.033455998 0.11893353
-0.02826871 -0.11059727 -0.0011835122 -0.06334179 0.07891806 0.09658482 0.009068904 -0.0917335
-0.064976834 0.04358615 0.08262621 0.051810157 0.05564352 -0.014158965 0.065582566 0.0022499445
-0.006563023 -0.030451495 -0.033373926 0.01576583 0.18544221 0.067563005 -0.0608019 0.03957368
0.13753934 -0.027795121 -0.048809282 -0.11661027 0.13728826 -0.0068216543 -0.027269563 0.19727887
0.26164523 -0.10911882 -0.10586023 0.054128766 -0.07642805 -0.014550979 -0.11373147 -0.037672803
-0.24064647 -0.14417017 0.13578948 -0.14878374 -0.079949856 -0.03968063 0.024770036 0.110473454
-0.018648418 0.10320528 0.051681735 0.057384733 0.06260888 0.1588799 -0.06757413 -0.105498806
0.07389383 0.057515845 0.03034156 0.030524967 -0.20877554 0.1398272 -0.008409612 -0.17082787
0.11131691 0.044607114 0.10389197 -0.053441864 -0.0062891254 -0.16595235 0.034606338 -0.041577503
0.023132356 0.0020731462 -0.04617057 -0.0039357482 0.14103526 -0.20215315 0.119611956 0.063025475
-0.08047227 -0.16853519 -0.007575405 0.046618603 -0.042639345 0.049566183 0.013193643 0.09592152
0.068527885 0.051683 0.11116876 0.008213379 0.06795842 0.026565293 -0.02115949 -0.068662
-0.12652998 -0.014444876 0.051430784 -0.06693554 -0.075212814 0.019307455 -0.05468355 0.09024438
-0.12981716 0.10825379 0.053118233 -0.033259958 -0.19747722 -0.0412652 -0.12534973 0.03205931
0.080786996 0.04543647 -0.13783982 0.11849618 -0.09661507 -0.011339271 -0.056951325 -0.020421563
-0.047372006 -0.12529017 0.10398908 -0.014959551 -0.0519883 -0.013081276 -0.13831288 0.053025853
-0.0075439312 -0.07398575 0.04261768 0.1278168 0.1423502 0.31043404 -0.09758159 0.20454055
0.051559582 -0.14715405 -0.018469572 -0.086484835 0.02728911 0.013676278 0.063549675 -0.032125358
-0.088230416 0.21945354 0.12024034 0.014510876 0.04265801 0.15374151 0.17425308 -0.17839302
0.0847127 0.13716811 0.0060880077 -0.030315725 0.07750991 0.009662333 0.107592575 0.03131271
00000000: 06cb 44be 096e 13bb 7f5a c73d 68ce f53b
00000010: 55ad 293d b49a 8ebc 6264 b5bd 5054 0cbd
00000020: 26d1 e33d 5e07 e53d 04b7 db3d 675f 71bd
00000030: 3bc1 14bd 9761 30be 14c3 133d ff05 ac3c
00000040: e470 27be e7cf 54bc dc6a 67bd abd8 12be
00000050: 8061 48bd d4f1 2cbd fd16 e43d 0404 f43d
00000060: d5e5 873c 1459 493d 9114 bcbd f56e 733d
00000070: da80 ba3c 7455 79bc ba78 893d 34d0 323d
00000080: 5c9e dabd 29b7 a33d 982f 2fbd 8419 523d
00000090: 3f4a d3bd ee44 d1bc 88fd 1b3b cf66 74bc
000000a0: 382b 9dbd f235 f7bb ff94 d73c c95f 113b
000000b0: fa3a 92bd 6a0e d03d 2cbb b3bd f450 0c3d
000000c0: 213b 723d 9afd 63bd eebb 8b3d b8c5 17be
000000d0: 9bcb ca3c 278b 13be 29a8 dd3d ffed cabb
000000e0: 82e9 b2bd 8e89 dfbc 21bd 0abd e05a a93d
000000f0: 6b03 a8bd 2442 273c 57fa 843d 1a92 8f3c
00000100: 12bb 44bc ff91 9a3d 2f4a a3bd d244 d23d
00000110: 9ca1 cb3d c2da 7dbe e195 a7bc b94d 293e
00000120: 2672 b5bd 5422 213e 37bd 8eba 9b0a 18be
00000130: e98a 01be 7f42 0e3e 2b01 80bd 0b9f 98bd
00000140: 0f16 0cbd 4126 7fbc 57d5 81bd 42b6 163e
00000150: 8116 76bd 647d 513d d226 82bd 8e23 e43d
00000160: 293f 38bd ecca 73ba e98b c13d 61e0 123e
00000170: f6c2 403c f413 cf3c 2809 093d 6c93 f33d
00000180: c893 e7bc d280 e2bd 1420 9bba 57b9 81bd
00000190: cb9f a13d 43ce c53d be95 143c c6de bbbd
000001a0: 9312 85bd 6487 323d ee37 a93d e336 543d
000001b0: 76ea 633d 01fb 67bc 2750 863d ce73 133b
000001c0: a10e d7bb 6a75 f9bc 19b3 08bd 5827 813c
000001d0: 90e4 3d3e 795e 8a3d 6a0b 79bd 0318 223d
000001e0: 1dd7 0c3e 98b2 e3bc 3eec 47bd 5ed1 eebd
000001f0: 4b95 0c3e 2f88 dfbb 6b64 dfbc 7903 4a3e
00000200: 5df6 853e b079 dfbd 40cd d8bd 20b6 5d3d
00000210: 4f86 9cbd 3b67 6ebc 0cec e8bd cc4e 1abd
00000220: 076c 76be 58a1 13be 660c 0b3e c45a 18be
00000230: c0bc a3bd 2888 22bd 88ea ca3c e83f e23d
00000240: 91c4 98bc 4a5d d33d 3ab0 533d 410c 6b3d
00000250: 1639 803d 6ab1 223e 4e64 8abd c20f d8bd
00000260: a655 973d bc95 6b3d dd8e f83c 7f0f fa3c
00000270: 41c9 55be dd2e 0f3e 78c8 09bc 80ed 2ebe
00000280: 1ffa e33d f3b5 363d 50c5 d43d dbe5 5abd
00000290: 0215 cebb 6aef 29be 60bf 0d3d 2c4d 2abd
000002a0: 1180 bd3c 9fdd 073b 5a1d 3dbd 73f7 80bb
000002b0: 8c6b 103e 3c01 4fbe 1df7 f43d 8013 813d
000002c0: a5ce a4bd 7d94 2cbe 1a3b f8bb 26f3 3e3d
000002d0: 98a6 2ebd e905 4b3d 262a 583c 8072 c43d
000002e0: 5958 8c3d 8eb1 533d 72ac e33d 6991 063c
000002f0: c92d 8b3d 759f d93c ab56 adbc aa9e 8cbd
00000300: 1391 01be 34aa 6cbc 16a9 523d 8015 89bd
00000310: 2d09 9abd ab2a 9e3c dcfb 5fbd 0cd2 b83d
00000320: caee 04be 2ab4 dd3d 8192 593d 983b 08bd
00000330: 7837 4abe b305 29bd ae5b 00be 9f50 033d
00000340: a773 a53d 981b 3a3d e225 0dbe 20ae f23d
00000350: 1fde c5bd 5ac8 39bc cb45 69bd 1f4b a7bc
00000360: 2609 42bd 114c 00be 3af8 d43d e818 75bc
00000370: aff1 54bd d952 56bc e4a1 0dbe a331 593d
00000380: 1533 f7bb d785 97bd e08f 2e3d 68e2 023e
00000390: 40c4 113e 36f1 9e3e dbd8 c7bd 1473 513e
000003a0: 2430 533d 8daf 16be 804d 97bc f61e b1bd
000003b0: 698d df3c 7812 603c 5526 823d e195 03bd
000003c0: 26b2 b4bd 6eb8 603e 9140 f63d 06bf 6d3c
000003d0: 2aba 2e3d 6a6e 1d3e 666f 323e a9ac 36be
000003e0: da7d ad3d cc75 0c3e e97d c73b af58 f8bc
000003f0: 84bd 9e3d c34e 1e3c 7f59 dc3d c241 003d

fc2.bias f4 [128]
-0.015745511 0.031271696 0.04189376 -0.037928227 0.019984476 -0.0034774148 0.017799126 -0.0023756188
0.061957538 0.011669595 0.056762252 -0.033814307 0.02716467 -0.04050281 -0.036095995 0.04106106
0.0470459 0.05925398 -0.015347864 0.01431541 0.031565648 -0.00834603 0.015515868 -0.015155822
0.037714034 -0.038181234 -0.027697323 0.05846383 0.0374794 -0.031677544 0.045771264 0.03376024
0.0011283801 0.024722077 -0.044891723 0.01809353 -0.041580003 0.0012562062 -0.059695363 0.034097012
-0.014044724 -0.060684986 0.02943158 -0.041611522 0.01563031 0.030886343 -0.019464754 -0.013829422
-0.036481146 0.031989764 0.04998886 0.016182113 0.02057352 -0.049202282 -0.045143325 0.032257717
-0.04063516 -0.0036865287 -0.0011400301 0.038306102 0.05296164 0.032677248 -0.032321356 0.0546699
-0.035288595 0.012778211 -0.031613216 0.007883269 0.06193628 -0.020752156 0.010385754 -0.03418882
0.054649405 0.021281663 0.048441432 0.040626824 0.039686155 0.02607859 0.0652431 -0.0016930791
-0.03983868 0.013584657 0.030008884 -0.0053522573 -0.04639908 0.0052841925 -0.0047136825 -0.012480714
-0.05590863 -0.0053509185 -0.041688688 0.014907607 0.04280794 0.050992567 0.06429365 -0.052129373
0.018619021 0.045826904 -0.0111484565 0.026919791 0.0122000445 0.021747023 -0.06867515 -0.044476565
0.048304502 -0.0659224 0.042301822 0.0016117737 -0.04832971 0.035135414 0.059568454 0.0046140603
0.005535649 0.025588552 -0.047217984 0.01411568 0.0038161036 0.0018877196 -0.042600103 -0.000214331
-0.030211778 0.009843286 -0.013941676 0.03051927 -0.010873582 0.049363934 0.0499578 -0.027112408
00000000: bbfc 80bc c016 003d cb98 2b3d a15a 1bbd
00000010: 7cb6 a33c 57e5 63bb 79cf 913c 45b0 1bbb
00000020: 30c7 7d3d d431 3f3c 897f 683d df80 0abd
00000030: 7188 de3c 46e6 25bd 65d9 13bd a42f 283d
00000040: 34b3 403d 4db4 723d 9b75 7bbc 2e8b 6a3c
00000050: fb4a 013d c9bd 08bc 4436 7e3c 2050 78bc
00000060: 087a 1a3d ed63 1cbd 7fe5 e2bc c577 6f3d
00000070: 0084 193d 50c0 01bd a67a 3b3d 2d48 0a3d
00000080: 27e6 933a f485 ca3c 62e0 37bd e238 943c
00000090: cb4f 2abd 49a7 a43a 2083 74bd 4fa9 0b3d
000000a0: d81b 66bc d290 78bd 7f1a f13c d870 2abd
000000b0: 230b 803c 5b05 fd3c 8c74 9fbc cd94 62bc
000000c0: 416d 15bd b307 033d 1ec1 4c3d 5a90 843c
000000d0: cc89 a83c 5588 49bd 35e8 38bd ab20 043d
000000e0: 0e71 26bd b099 71bb 106d 95ba dce6 1c3d
000000f0: 4eee 583d 94d8 053d 6663 04bd 8ced 5f3d
00000100: c68a 10bd b45b 513c dc7c 01bd d428 013c
00000110: e6b0 7d3d 6d00 aabc 0229 2a3c 9309 0cbd
00000120: 0ed8 5f3d e256 ae3c 866a 463d 5068 263d
00000130: f38d 223d c4a2 d53c 2d9e 853d 4fea ddba
00000140: e22d 23bd 2e92 5e3c 31d5 f53c fd61 afbb
00000150: f60c 3ebd 0527 ad3b 3c75 9abb e97b 4cbc
00000160: 7300 65bd c256 afbb c2c1 2abd 093f 743c
00000170: 6157 2f3d 95dd 503d 64ac 833d 9c85 55bd
00000180: eb86 983c feb4 3b3d 04a8 36bc e586 dc3c
00000190: b2e2 473c d026 b23c 8fa5 8cbd 0f2d 36bd
000001a0: f1da 453d 5302 87bd ad44 2d3d 2742 d33a
000001b0: 60f5 45bd 27ea 0f3d 0dfe 733d 8b31 973b
000001c0: 6464 b53b 159f d13c a567 41bd 7445 673c
000001d0: 9817 7a3b 5c6d f73a 727d 2ebd 0abe 60b9
000001e0: b17e f7bc bc45 213c a16b 64bc 8c03 fa3c
000001f0: 1c27 32bc d631 4a3d 8da0 4c3d d71a debc

bn2.weight f4 [128]
0.9922886 0.9833041 1.0067406 1.0491178 0.9410992 1.0035758 1.0096174 1.0023992
1.0584017 0.98070204 0.994596 0.95094573 0.99094534 0.92235106 0.9844956 1.0338893
0.98477876 0.9101066 1.0704447 0.9806324 0.9780942 0.9877018 1.0212865 1.0236486
1.0436178 0.93640053 0.9892452 0.98086566 1.0052547 1.0375257 1.0459433 0.9270015
1.0004432 0.93246484 0.8990546 1.0746272 1.0381802 0.97478706 1.0771099 1.0108956
1.0257126 1.0569258 1.0494009 0.8755797 0.98067284 0.997936 1.0658188 1.034296
1.0418853 1.0681659 0.9200957 0.9949607 1.0264539 0.9086185 0.93625546 0.9428068
0.94746935 1.0633326 1.039881 0.9877585 0.98713225 1.0381198 1.0082012 1.0528576
1.0736217 1.0063882 1.0035326 0.9583876 0.9960282 0.97942317 0.9886549 1.0430315
0.94889855 0.96364135 0.9822587 1.0563493 1.0067397 0.9973646 0.9931303 0.9713271
0.98936427 1.0289216 1.0259094 1.0133097 1.0371429 0.99672806 0.9688763 0.98720706
0.9615874 1.0163587 0.9309423 1.0365001 0.96424115 1.1116712 1.000018 1.0590391
1.0152432 1.0045774 0.9916838 0.97752374 0.98735213 0.99067676 0.9979016 0.96483296
1.0729489 0.9663122 1.0252061 1.0301461 1.030043 1.027029 0.98762506 1.051689
0.9417784 1.0760449 0.99016416 0.924761 0.9956501 1.087135 0.9516079 1.020048
1.0185919 0.95957565 1.0137765 0.96913064 1.0084896 0.9729927 1.0131837 1.0320452
00000000: a006 7e3f d1b9 7b3f e0dc 803f 7e49 863f
00000010: e1eb 703f 2c75 803f 253b 813f 9e4e 803f
00000020: b579 873f 4a0f 7b3f d89d 7e3f 2e71 733f
00000030: 98ae 7d3f 331f 6c3f e707 7c3f 7c56 843f
00000040: 761a 7c3f bffc 683f 5504 893f ba0a 7b3f
00000050: 6264 7a3f 06da 7c3f 84b9 823f eb06 833f
00000060: 4595 853f f2b7 6f3f 2c3f 7d3f 031a 7b3f
00000070: 30ac 803f a4cd 843f 78e1 853f f84f 6d3f
00000080: 860e 803f 04b6 6e3f 7128 663f 628d 893f
00000090: 17e3 843f a58b 793f bdde 893f 0765 813f
000000a0: 8d4a 833f 5849 873f c552 863f fe25 603f
000000b0: 600d 7b3f bc78 7f3f c06c 883f d063 843f
000000c0: 7f5c 853f a9b9 883f 648b 6b3f bfb5 7e3f
000000d0: d762 833f 399b 683f 70ae 6f3f c95b 713f
000000e0: 5a8d 723f 481b 883f d21a 853f bedd 7c3f
000000f0: b3b4 7c3f 1ce1 843f bd0c 813f 0ac4 863f
00000100: 706c 893f 54d1 803f c273 803f e458 753f
00000110: b4fb 7e3f 7abb 7a3f 7d18 7d3f 0e82 853f
00000120: 04eb 723f 33b1 763f 4e75 7b3f 7436 873f
00000130: d9dc 803f 4953 7f3f ca3d 7e3f e5a8 783f
00000140: fa46 7d3f b4b3 833f 0051 833f 22b4 813f
00000150: 19c1 843f 9229 7f3f 4708 783f 9ab9 7c3f
00000160: 982a 763f 0b18 823f 3c52 6e3f 09ac 843f
00000170: 82d8 763f 3e4b 8e3f 9700 803f 988e 873f
00000180: 7df3 813f fe95 803f fdde 7d3f ff3e 7a3f
00000190: 1cc3 7c3f fe9c 7d3f 7b76 7f3f 4bff 763f
000001a0: 6456 893f 3d60 773f f439 833f d4db 833f
000001b0: 73d8 833f b075 833f ffd4 7c3f bf9d 863f
000001c0: 6418 713f d7bb 893f 667b 7d3f 23bd 6c3f
000001d0: ede2 7e3f 3d27 8b3f 939c 733f ef90 823f
000001e0: 3861 823f c0a6 753f 6ec3 813f f218 783f
000001f0: 3016 813f 0d16 793f 01b0 813f 0f1a 843f
